name: "Two point correlation ConvNet"
input: "data"
input_dim: 1
input_dim: 1
input_dim: 50
input_dim: 50
force_backward: true
layer {
  name: "conv_0_1"
  type: "Convolution"
  bottom: "data"
  top: "conv_0_1"
  convolution_param {
    num_output: 1
    pad: 0
    stride: 1
    weight_filler {
      type: "constant"
      value: 0
    }
    bias_filler {
      type: "constant"
      value: -1
    }
    kernel_h: 1
    kernel_w: 1
  }
}
layer {
  name: "relu_0_1"
  type: "ReLU"
  bottom: "conv_0_1"
  top: "conv_0_1"
}
layer {
  name: "fc_0_1"
  type: "InnerProduct"
  bottom: "conv_0_1"
  top: "fc_0_1"
  inner_product_param {
    num_output: 1
    weight_filler {
      type: "constant"
      value: 1
    }
    bias_filler {
      type: "constant"
      value: 0
    }
  }
}
layer {
  name: "concat_0"
  type: "Concat"
  bottom: "fc_0_1"
  top: "concat_0"
}
layer {
  name: "sum_0"
  type: "InnerProduct"
  bottom: "concat_0"
  top: "sum_0"
  inner_product_param {
    num_output: 1
    weight_filler {
      type: "constant"
      value: 1
    }
    bias_filler {
      type: "constant"
      value: 0
    }
  }
}
layer {
  name: "conv_1_1"
  type: "Convolution"
  bottom: "data"
  top: "conv_1_1"
  convolution_param {
    num_output: 1
    pad: 0
    stride: 1
    weight_filler {
      type: "constant"
      value: 0
    }
    bias_filler {
      type: "constant"
      value: -1
    }
    kernel_h: 1
    kernel_w: 2
  }
}
layer {
  name: "relu_1_1"
  type: "ReLU"
  bottom: "conv_1_1"
  top: "conv_1_1"
}
layer {
  name: "fc_1_1"
  type: "InnerProduct"
  bottom: "conv_1_1"
  top: "fc_1_1"
  inner_product_param {
    num_output: 1
    weight_filler {
      type: "constant"
      value: 1
    }
    bias_filler {
      type: "constant"
      value: 0
    }
  }
}
layer {
  name: "conv_1_2"
  type: "Convolution"
  bottom: "data"
  top: "conv_1_2"
  convolution_param {
    num_output: 1
    pad: 0
    stride: 1
    weight_filler {
      type: "constant"
      value: 0
    }
    bias_filler {
      type: "constant"
      value: -1
    }
    kernel_h: 2
    kernel_w: 1
  }
}
layer {
  name: "relu_1_2"
  type: "ReLU"
  bottom: "conv_1_2"
  top: "conv_1_2"
}
layer {
  name: "fc_1_2"
  type: "InnerProduct"
  bottom: "conv_1_2"
  top: "fc_1_2"
  inner_product_param {
    num_output: 1
    weight_filler {
      type: "constant"
      value: 1
    }
    bias_filler {
      type: "constant"
      value: 0
    }
  }
}
layer {
  name: "conv_1_3"
  type: "Convolution"
  bottom: "data"
  top: "conv_1_3"
  convolution_param {
    num_output: 1
    pad: 0
    stride: 1
    weight_filler {
      type: "constant"
      value: 0
    }
    bias_filler {
      type: "constant"
      value: -1
    }
    kernel_h: 2
    kernel_w: 2
  }
}
layer {
  name: "relu_1_3"
  type: "ReLU"
  bottom: "conv_1_3"
  top: "conv_1_3"
}
layer {
  name: "fc_1_3"
  type: "InnerProduct"
  bottom: "conv_1_3"
  top: "fc_1_3"
  inner_product_param {
    num_output: 1
    weight_filler {
      type: "constant"
      value: 1
    }
    bias_filler {
      type: "constant"
      value: 0
    }
  }
}
layer {
  name: "conv_1_4"
  type: "Convolution"
  bottom: "data"
  top: "conv_1_4"
  convolution_param {
    num_output: 1
    pad: 0
    stride: 1
    weight_filler {
      type: "constant"
      value: 0
    }
    bias_filler {
      type: "constant"
      value: -1
    }
    kernel_h: 2
    kernel_w: 2
  }
}
layer {
  name: "relu_1_4"
  type: "ReLU"
  bottom: "conv_1_4"
  top: "conv_1_4"
}
layer {
  name: "fc_1_4"
  type: "InnerProduct"
  bottom: "conv_1_4"
  top: "fc_1_4"
  inner_product_param {
    num_output: 1
    weight_filler {
      type: "constant"
      value: 1
    }
    bias_filler {
      type: "constant"
      value: 0
    }
  }
}
layer {
  name: "concat_1"
  type: "Concat"
  bottom: "fc_1_1"
  bottom: "fc_1_2"
  bottom: "fc_1_3"
  bottom: "fc_1_4"
  top: "concat_1"
}
layer {
  name: "sum_1"
  type: "InnerProduct"
  bottom: "concat_1"
  top: "sum_1"
  inner_product_param {
    num_output: 1
    weight_filler {
      type: "constant"
      value: 1
    }
    bias_filler {
      type: "constant"
      value: 0
    }
  }
}
layer {
  name: "conv_2_1"
  type: "Convolution"
  bottom: "data"
  top: "conv_2_1"
  convolution_param {
    num_output: 1
    pad: 0
    stride: 1
    weight_filler {
      type: "constant"
      value: 0
    }
    bias_filler {
      type: "constant"
      value: -1
    }
    kernel_h: 1
    kernel_w: 3
  }
}
layer {
  name: "relu_2_1"
  type: "ReLU"
  bottom: "conv_2_1"
  top: "conv_2_1"
}
layer {
  name: "fc_2_1"
  type: "InnerProduct"
  bottom: "conv_2_1"
  top: "fc_2_1"
  inner_product_param {
    num_output: 1
    weight_filler {
      type: "constant"
      value: 1
    }
    bias_filler {
      type: "constant"
      value: 0
    }
  }
}
layer {
  name: "conv_2_2"
  type: "Convolution"
  bottom: "data"
  top: "conv_2_2"
  convolution_param {
    num_output: 1
    pad: 0
    stride: 1
    weight_filler {
      type: "constant"
      value: 0
    }
    bias_filler {
      type: "constant"
      value: -1
    }
    kernel_h: 2
    kernel_w: 3
  }
}
layer {
  name: "relu_2_2"
  type: "ReLU"
  bottom: "conv_2_2"
  top: "conv_2_2"
}
layer {
  name: "fc_2_2"
  type: "InnerProduct"
  bottom: "conv_2_2"
  top: "fc_2_2"
  inner_product_param {
    num_output: 1
    weight_filler {
      type: "constant"
      value: 1
    }
    bias_filler {
      type: "constant"
      value: 0
    }
  }
}
layer {
  name: "conv_2_3"
  type: "Convolution"
  bottom: "data"
  top: "conv_2_3"
  convolution_param {
    num_output: 1
    pad: 0
    stride: 1
    weight_filler {
      type: "constant"
      value: 0
    }
    bias_filler {
      type: "constant"
      value: -1
    }
    kernel_h: 2
    kernel_w: 3
  }
}
layer {
  name: "relu_2_3"
  type: "ReLU"
  bottom: "conv_2_3"
  top: "conv_2_3"
}
layer {
  name: "fc_2_3"
  type: "InnerProduct"
  bottom: "conv_2_3"
  top: "fc_2_3"
  inner_product_param {
    num_output: 1
    weight_filler {
      type: "constant"
      value: 1
    }
    bias_filler {
      type: "constant"
      value: 0
    }
  }
}
layer {
  name: "conv_2_4"
  type: "Convolution"
  bottom: "data"
  top: "conv_2_4"
  convolution_param {
    num_output: 1
    pad: 0
    stride: 1
    weight_filler {
      type: "constant"
      value: 0
    }
    bias_filler {
      type: "constant"
      value: -1
    }
    kernel_h: 3
    kernel_w: 1
  }
}
layer {
  name: "relu_2_4"
  type: "ReLU"
  bottom: "conv_2_4"
  top: "conv_2_4"
}
layer {
  name: "fc_2_4"
  type: "InnerProduct"
  bottom: "conv_2_4"
  top: "fc_2_4"
  inner_product_param {
    num_output: 1
    weight_filler {
      type: "constant"
      value: 1
    }
    bias_filler {
      type: "constant"
      value: 0
    }
  }
}
layer {
  name: "conv_2_5"
  type: "Convolution"
  bottom: "data"
  top: "conv_2_5"
  convolution_param {
    num_output: 1
    pad: 0
    stride: 1
    weight_filler {
      type: "constant"
      value: 0
    }
    bias_filler {
      type: "constant"
      value: -1
    }
    kernel_h: 3
    kernel_w: 2
  }
}
layer {
  name: "relu_2_5"
  type: "ReLU"
  bottom: "conv_2_5"
  top: "conv_2_5"
}
layer {
  name: "fc_2_5"
  type: "InnerProduct"
  bottom: "conv_2_5"
  top: "fc_2_5"
  inner_product_param {
    num_output: 1
    weight_filler {
      type: "constant"
      value: 1
    }
    bias_filler {
      type: "constant"
      value: 0
    }
  }
}
layer {
  name: "conv_2_6"
  type: "Convolution"
  bottom: "data"
  top: "conv_2_6"
  convolution_param {
    num_output: 1
    pad: 0
    stride: 1
    weight_filler {
      type: "constant"
      value: 0
    }
    bias_filler {
      type: "constant"
      value: -1
    }
    kernel_h: 3
    kernel_w: 2
  }
}
layer {
  name: "relu_2_6"
  type: "ReLU"
  bottom: "conv_2_6"
  top: "conv_2_6"
}
layer {
  name: "fc_2_6"
  type: "InnerProduct"
  bottom: "conv_2_6"
  top: "fc_2_6"
  inner_product_param {
    num_output: 1
    weight_filler {
      type: "constant"
      value: 1
    }
    bias_filler {
      type: "constant"
      value: 0
    }
  }
}
layer {
  name: "concat_2"
  type: "Concat"
  bottom: "fc_2_1"
  bottom: "fc_2_2"
  bottom: "fc_2_3"
  bottom: "fc_2_4"
  bottom: "fc_2_5"
  bottom: "fc_2_6"
  top: "concat_2"
}
layer {
  name: "sum_2"
  type: "InnerProduct"
  bottom: "concat_2"
  top: "sum_2"
  inner_product_param {
    num_output: 1
    weight_filler {
      type: "constant"
      value: 1
    }
    bias_filler {
      type: "constant"
      value: 0
    }
  }
}
layer {
  name: "conv_3_1"
  type: "Convolution"
  bottom: "data"
  top: "conv_3_1"
  convolution_param {
    num_output: 1
    pad: 0
    stride: 1
    weight_filler {
      type: "constant"
      value: 0
    }
    bias_filler {
      type: "constant"
      value: -1
    }
    kernel_h: 1
    kernel_w: 4
  }
}
layer {
  name: "relu_3_1"
  type: "ReLU"
  bottom: "conv_3_1"
  top: "conv_3_1"
}
layer {
  name: "fc_3_1"
  type: "InnerProduct"
  bottom: "conv_3_1"
  top: "fc_3_1"
  inner_product_param {
    num_output: 1
    weight_filler {
      type: "constant"
      value: 1
    }
    bias_filler {
      type: "constant"
      value: 0
    }
  }
}
layer {
  name: "conv_3_2"
  type: "Convolution"
  bottom: "data"
  top: "conv_3_2"
  convolution_param {
    num_output: 1
    pad: 0
    stride: 1
    weight_filler {
      type: "constant"
      value: 0
    }
    bias_filler {
      type: "constant"
      value: -1
    }
    kernel_h: 2
    kernel_w: 4
  }
}
layer {
  name: "relu_3_2"
  type: "ReLU"
  bottom: "conv_3_2"
  top: "conv_3_2"
}
layer {
  name: "fc_3_2"
  type: "InnerProduct"
  bottom: "conv_3_2"
  top: "fc_3_2"
  inner_product_param {
    num_output: 1
    weight_filler {
      type: "constant"
      value: 1
    }
    bias_filler {
      type: "constant"
      value: 0
    }
  }
}
layer {
  name: "conv_3_3"
  type: "Convolution"
  bottom: "data"
  top: "conv_3_3"
  convolution_param {
    num_output: 1
    pad: 0
    stride: 1
    weight_filler {
      type: "constant"
      value: 0
    }
    bias_filler {
      type: "constant"
      value: -1
    }
    kernel_h: 2
    kernel_w: 4
  }
}
layer {
  name: "relu_3_3"
  type: "ReLU"
  bottom: "conv_3_3"
  top: "conv_3_3"
}
layer {
  name: "fc_3_3"
  type: "InnerProduct"
  bottom: "conv_3_3"
  top: "fc_3_3"
  inner_product_param {
    num_output: 1
    weight_filler {
      type: "constant"
      value: 1
    }
    bias_filler {
      type: "constant"
      value: 0
    }
  }
}
layer {
  name: "conv_3_4"
  type: "Convolution"
  bottom: "data"
  top: "conv_3_4"
  convolution_param {
    num_output: 1
    pad: 0
    stride: 1
    weight_filler {
      type: "constant"
      value: 0
    }
    bias_filler {
      type: "constant"
      value: -1
    }
    kernel_h: 3
    kernel_w: 3
  }
}
layer {
  name: "relu_3_4"
  type: "ReLU"
  bottom: "conv_3_4"
  top: "conv_3_4"
}
layer {
  name: "fc_3_4"
  type: "InnerProduct"
  bottom: "conv_3_4"
  top: "fc_3_4"
  inner_product_param {
    num_output: 1
    weight_filler {
      type: "constant"
      value: 1
    }
    bias_filler {
      type: "constant"
      value: 0
    }
  }
}
layer {
  name: "conv_3_5"
  type: "Convolution"
  bottom: "data"
  top: "conv_3_5"
  convolution_param {
    num_output: 1
    pad: 0
    stride: 1
    weight_filler {
      type: "constant"
      value: 0
    }
    bias_filler {
      type: "constant"
      value: -1
    }
    kernel_h: 3
    kernel_w: 3
  }
}
layer {
  name: "relu_3_5"
  type: "ReLU"
  bottom: "conv_3_5"
  top: "conv_3_5"
}
layer {
  name: "fc_3_5"
  type: "InnerProduct"
  bottom: "conv_3_5"
  top: "fc_3_5"
  inner_product_param {
    num_output: 1
    weight_filler {
      type: "constant"
      value: 1
    }
    bias_filler {
      type: "constant"
      value: 0
    }
  }
}
layer {
  name: "conv_3_6"
  type: "Convolution"
  bottom: "data"
  top: "conv_3_6"
  convolution_param {
    num_output: 1
    pad: 0
    stride: 1
    weight_filler {
      type: "constant"
      value: 0
    }
    bias_filler {
      type: "constant"
      value: -1
    }
    kernel_h: 4
    kernel_w: 1
  }
}
layer {
  name: "relu_3_6"
  type: "ReLU"
  bottom: "conv_3_6"
  top: "conv_3_6"
}
layer {
  name: "fc_3_6"
  type: "InnerProduct"
  bottom: "conv_3_6"
  top: "fc_3_6"
  inner_product_param {
    num_output: 1
    weight_filler {
      type: "constant"
      value: 1
    }
    bias_filler {
      type: "constant"
      value: 0
    }
  }
}
layer {
  name: "conv_3_7"
  type: "Convolution"
  bottom: "data"
  top: "conv_3_7"
  convolution_param {
    num_output: 1
    pad: 0
    stride: 1
    weight_filler {
      type: "constant"
      value: 0
    }
    bias_filler {
      type: "constant"
      value: -1
    }
    kernel_h: 4
    kernel_w: 2
  }
}
layer {
  name: "relu_3_7"
  type: "ReLU"
  bottom: "conv_3_7"
  top: "conv_3_7"
}
layer {
  name: "fc_3_7"
  type: "InnerProduct"
  bottom: "conv_3_7"
  top: "fc_3_7"
  inner_product_param {
    num_output: 1
    weight_filler {
      type: "constant"
      value: 1
    }
    bias_filler {
      type: "constant"
      value: 0
    }
  }
}
layer {
  name: "conv_3_8"
  type: "Convolution"
  bottom: "data"
  top: "conv_3_8"
  convolution_param {
    num_output: 1
    pad: 0
    stride: 1
    weight_filler {
      type: "constant"
      value: 0
    }
    bias_filler {
      type: "constant"
      value: -1
    }
    kernel_h: 4
    kernel_w: 2
  }
}
layer {
  name: "relu_3_8"
  type: "ReLU"
  bottom: "conv_3_8"
  top: "conv_3_8"
}
layer {
  name: "fc_3_8"
  type: "InnerProduct"
  bottom: "conv_3_8"
  top: "fc_3_8"
  inner_product_param {
    num_output: 1
    weight_filler {
      type: "constant"
      value: 1
    }
    bias_filler {
      type: "constant"
      value: 0
    }
  }
}
layer {
  name: "concat_3"
  type: "Concat"
  bottom: "fc_3_1"
  bottom: "fc_3_2"
  bottom: "fc_3_3"
  bottom: "fc_3_4"
  bottom: "fc_3_5"
  bottom: "fc_3_6"
  bottom: "fc_3_7"
  bottom: "fc_3_8"
  top: "concat_3"
}
layer {
  name: "sum_3"
  type: "InnerProduct"
  bottom: "concat_3"
  top: "sum_3"
  inner_product_param {
    num_output: 1
    weight_filler {
      type: "constant"
      value: 1
    }
    bias_filler {
      type: "constant"
      value: 0
    }
  }
}
layer {
  name: "conv_4_1"
  type: "Convolution"
  bottom: "data"
  top: "conv_4_1"
  convolution_param {
    num_output: 1
    pad: 0
    stride: 1
    weight_filler {
      type: "constant"
      value: 0
    }
    bias_filler {
      type: "constant"
      value: -1
    }
    kernel_h: 1
    kernel_w: 5
  }
}
layer {
  name: "relu_4_1"
  type: "ReLU"
  bottom: "conv_4_1"
  top: "conv_4_1"
}
layer {
  name: "fc_4_1"
  type: "InnerProduct"
  bottom: "conv_4_1"
  top: "fc_4_1"
  inner_product_param {
    num_output: 1
    weight_filler {
      type: "constant"
      value: 1
    }
    bias_filler {
      type: "constant"
      value: 0
    }
  }
}
layer {
  name: "conv_4_2"
  type: "Convolution"
  bottom: "data"
  top: "conv_4_2"
  convolution_param {
    num_output: 1
    pad: 0
    stride: 1
    weight_filler {
      type: "constant"
      value: 0
    }
    bias_filler {
      type: "constant"
      value: -1
    }
    kernel_h: 2
    kernel_w: 5
  }
}
layer {
  name: "relu_4_2"
  type: "ReLU"
  bottom: "conv_4_2"
  top: "conv_4_2"
}
layer {
  name: "fc_4_2"
  type: "InnerProduct"
  bottom: "conv_4_2"
  top: "fc_4_2"
  inner_product_param {
    num_output: 1
    weight_filler {
      type: "constant"
      value: 1
    }
    bias_filler {
      type: "constant"
      value: 0
    }
  }
}
layer {
  name: "conv_4_3"
  type: "Convolution"
  bottom: "data"
  top: "conv_4_3"
  convolution_param {
    num_output: 1
    pad: 0
    stride: 1
    weight_filler {
      type: "constant"
      value: 0
    }
    bias_filler {
      type: "constant"
      value: -1
    }
    kernel_h: 2
    kernel_w: 5
  }
}
layer {
  name: "relu_4_3"
  type: "ReLU"
  bottom: "conv_4_3"
  top: "conv_4_3"
}
layer {
  name: "fc_4_3"
  type: "InnerProduct"
  bottom: "conv_4_3"
  top: "fc_4_3"
  inner_product_param {
    num_output: 1
    weight_filler {
      type: "constant"
      value: 1
    }
    bias_filler {
      type: "constant"
      value: 0
    }
  }
}
layer {
  name: "conv_4_4"
  type: "Convolution"
  bottom: "data"
  top: "conv_4_4"
  convolution_param {
    num_output: 1
    pad: 0
    stride: 1
    weight_filler {
      type: "constant"
      value: 0
    }
    bias_filler {
      type: "constant"
      value: -1
    }
    kernel_h: 3
    kernel_w: 4
  }
}
layer {
  name: "relu_4_4"
  type: "ReLU"
  bottom: "conv_4_4"
  top: "conv_4_4"
}
layer {
  name: "fc_4_4"
  type: "InnerProduct"
  bottom: "conv_4_4"
  top: "fc_4_4"
  inner_product_param {
    num_output: 1
    weight_filler {
      type: "constant"
      value: 1
    }
    bias_filler {
      type: "constant"
      value: 0
    }
  }
}
layer {
  name: "conv_4_5"
  type: "Convolution"
  bottom: "data"
  top: "conv_4_5"
  convolution_param {
    num_output: 1
    pad: 0
    stride: 1
    weight_filler {
      type: "constant"
      value: 0
    }
    bias_filler {
      type: "constant"
      value: -1
    }
    kernel_h: 3
    kernel_w: 4
  }
}
layer {
  name: "relu_4_5"
  type: "ReLU"
  bottom: "conv_4_5"
  top: "conv_4_5"
}
layer {
  name: "fc_4_5"
  type: "InnerProduct"
  bottom: "conv_4_5"
  top: "fc_4_5"
  inner_product_param {
    num_output: 1
    weight_filler {
      type: "constant"
      value: 1
    }
    bias_filler {
      type: "constant"
      value: 0
    }
  }
}
layer {
  name: "conv_4_6"
  type: "Convolution"
  bottom: "data"
  top: "conv_4_6"
  convolution_param {
    num_output: 1
    pad: 0
    stride: 1
    weight_filler {
      type: "constant"
      value: 0
    }
    bias_filler {
      type: "constant"
      value: -1
    }
    kernel_h: 3
    kernel_w: 5
  }
}
layer {
  name: "relu_4_6"
  type: "ReLU"
  bottom: "conv_4_6"
  top: "conv_4_6"
}
layer {
  name: "fc_4_6"
  type: "InnerProduct"
  bottom: "conv_4_6"
  top: "fc_4_6"
  inner_product_param {
    num_output: 1
    weight_filler {
      type: "constant"
      value: 1
    }
    bias_filler {
      type: "constant"
      value: 0
    }
  }
}
layer {
  name: "conv_4_7"
  type: "Convolution"
  bottom: "data"
  top: "conv_4_7"
  convolution_param {
    num_output: 1
    pad: 0
    stride: 1
    weight_filler {
      type: "constant"
      value: 0
    }
    bias_filler {
      type: "constant"
      value: -1
    }
    kernel_h: 3
    kernel_w: 5
  }
}
layer {
  name: "relu_4_7"
  type: "ReLU"
  bottom: "conv_4_7"
  top: "conv_4_7"
}
layer {
  name: "fc_4_7"
  type: "InnerProduct"
  bottom: "conv_4_7"
  top: "fc_4_7"
  inner_product_param {
    num_output: 1
    weight_filler {
      type: "constant"
      value: 1
    }
    bias_filler {
      type: "constant"
      value: 0
    }
  }
}
layer {
  name: "conv_4_8"
  type: "Convolution"
  bottom: "data"
  top: "conv_4_8"
  convolution_param {
    num_output: 1
    pad: 0
    stride: 1
    weight_filler {
      type: "constant"
      value: 0
    }
    bias_filler {
      type: "constant"
      value: -1
    }
    kernel_h: 4
    kernel_w: 3
  }
}
layer {
  name: "relu_4_8"
  type: "ReLU"
  bottom: "conv_4_8"
  top: "conv_4_8"
}
layer {
  name: "fc_4_8"
  type: "InnerProduct"
  bottom: "conv_4_8"
  top: "fc_4_8"
  inner_product_param {
    num_output: 1
    weight_filler {
      type: "constant"
      value: 1
    }
    bias_filler {
      type: "constant"
      value: 0
    }
  }
}
layer {
  name: "conv_4_9"
  type: "Convolution"
  bottom: "data"
  top: "conv_4_9"
  convolution_param {
    num_output: 1
    pad: 0
    stride: 1
    weight_filler {
      type: "constant"
      value: 0
    }
    bias_filler {
      type: "constant"
      value: -1
    }
    kernel_h: 4
    kernel_w: 3
  }
}
layer {
  name: "relu_4_9"
  type: "ReLU"
  bottom: "conv_4_9"
  top: "conv_4_9"
}
layer {
  name: "fc_4_9"
  type: "InnerProduct"
  bottom: "conv_4_9"
  top: "fc_4_9"
  inner_product_param {
    num_output: 1
    weight_filler {
      type: "constant"
      value: 1
    }
    bias_filler {
      type: "constant"
      value: 0
    }
  }
}
layer {
  name: "conv_4_10"
  type: "Convolution"
  bottom: "data"
  top: "conv_4_10"
  convolution_param {
    num_output: 1
    pad: 0
    stride: 1
    weight_filler {
      type: "constant"
      value: 0
    }
    bias_filler {
      type: "constant"
      value: -1
    }
    kernel_h: 4
    kernel_w: 4
  }
}
layer {
  name: "relu_4_10"
  type: "ReLU"
  bottom: "conv_4_10"
  top: "conv_4_10"
}
layer {
  name: "fc_4_10"
  type: "InnerProduct"
  bottom: "conv_4_10"
  top: "fc_4_10"
  inner_product_param {
    num_output: 1
    weight_filler {
      type: "constant"
      value: 1
    }
    bias_filler {
      type: "constant"
      value: 0
    }
  }
}
layer {
  name: "conv_4_11"
  type: "Convolution"
  bottom: "data"
  top: "conv_4_11"
  convolution_param {
    num_output: 1
    pad: 0
    stride: 1
    weight_filler {
      type: "constant"
      value: 0
    }
    bias_filler {
      type: "constant"
      value: -1
    }
    kernel_h: 4
    kernel_w: 4
  }
}
layer {
  name: "relu_4_11"
  type: "ReLU"
  bottom: "conv_4_11"
  top: "conv_4_11"
}
layer {
  name: "fc_4_11"
  type: "InnerProduct"
  bottom: "conv_4_11"
  top: "fc_4_11"
  inner_product_param {
    num_output: 1
    weight_filler {
      type: "constant"
      value: 1
    }
    bias_filler {
      type: "constant"
      value: 0
    }
  }
}
layer {
  name: "conv_4_12"
  type: "Convolution"
  bottom: "data"
  top: "conv_4_12"
  convolution_param {
    num_output: 1
    pad: 0
    stride: 1
    weight_filler {
      type: "constant"
      value: 0
    }
    bias_filler {
      type: "constant"
      value: -1
    }
    kernel_h: 5
    kernel_w: 1
  }
}
layer {
  name: "relu_4_12"
  type: "ReLU"
  bottom: "conv_4_12"
  top: "conv_4_12"
}
layer {
  name: "fc_4_12"
  type: "InnerProduct"
  bottom: "conv_4_12"
  top: "fc_4_12"
  inner_product_param {
    num_output: 1
    weight_filler {
      type: "constant"
      value: 1
    }
    bias_filler {
      type: "constant"
      value: 0
    }
  }
}
layer {
  name: "conv_4_13"
  type: "Convolution"
  bottom: "data"
  top: "conv_4_13"
  convolution_param {
    num_output: 1
    pad: 0
    stride: 1
    weight_filler {
      type: "constant"
      value: 0
    }
    bias_filler {
      type: "constant"
      value: -1
    }
    kernel_h: 5
    kernel_w: 2
  }
}
layer {
  name: "relu_4_13"
  type: "ReLU"
  bottom: "conv_4_13"
  top: "conv_4_13"
}
layer {
  name: "fc_4_13"
  type: "InnerProduct"
  bottom: "conv_4_13"
  top: "fc_4_13"
  inner_product_param {
    num_output: 1
    weight_filler {
      type: "constant"
      value: 1
    }
    bias_filler {
      type: "constant"
      value: 0
    }
  }
}
layer {
  name: "conv_4_14"
  type: "Convolution"
  bottom: "data"
  top: "conv_4_14"
  convolution_param {
    num_output: 1
    pad: 0
    stride: 1
    weight_filler {
      type: "constant"
      value: 0
    }
    bias_filler {
      type: "constant"
      value: -1
    }
    kernel_h: 5
    kernel_w: 2
  }
}
layer {
  name: "relu_4_14"
  type: "ReLU"
  bottom: "conv_4_14"
  top: "conv_4_14"
}
layer {
  name: "fc_4_14"
  type: "InnerProduct"
  bottom: "conv_4_14"
  top: "fc_4_14"
  inner_product_param {
    num_output: 1
    weight_filler {
      type: "constant"
      value: 1
    }
    bias_filler {
      type: "constant"
      value: 0
    }
  }
}
layer {
  name: "conv_4_15"
  type: "Convolution"
  bottom: "data"
  top: "conv_4_15"
  convolution_param {
    num_output: 1
    pad: 0
    stride: 1
    weight_filler {
      type: "constant"
      value: 0
    }
    bias_filler {
      type: "constant"
      value: -1
    }
    kernel_h: 5
    kernel_w: 3
  }
}
layer {
  name: "relu_4_15"
  type: "ReLU"
  bottom: "conv_4_15"
  top: "conv_4_15"
}
layer {
  name: "fc_4_15"
  type: "InnerProduct"
  bottom: "conv_4_15"
  top: "fc_4_15"
  inner_product_param {
    num_output: 1
    weight_filler {
      type: "constant"
      value: 1
    }
    bias_filler {
      type: "constant"
      value: 0
    }
  }
}
layer {
  name: "conv_4_16"
  type: "Convolution"
  bottom: "data"
  top: "conv_4_16"
  convolution_param {
    num_output: 1
    pad: 0
    stride: 1
    weight_filler {
      type: "constant"
      value: 0
    }
    bias_filler {
      type: "constant"
      value: -1
    }
    kernel_h: 5
    kernel_w: 3
  }
}
layer {
  name: "relu_4_16"
  type: "ReLU"
  bottom: "conv_4_16"
  top: "conv_4_16"
}
layer {
  name: "fc_4_16"
  type: "InnerProduct"
  bottom: "conv_4_16"
  top: "fc_4_16"
  inner_product_param {
    num_output: 1
    weight_filler {
      type: "constant"
      value: 1
    }
    bias_filler {
      type: "constant"
      value: 0
    }
  }
}
layer {
  name: "concat_4"
  type: "Concat"
  bottom: "fc_4_1"
  bottom: "fc_4_2"
  bottom: "fc_4_3"
  bottom: "fc_4_4"
  bottom: "fc_4_5"
  bottom: "fc_4_6"
  bottom: "fc_4_7"
  bottom: "fc_4_8"
  bottom: "fc_4_9"
  bottom: "fc_4_10"
  bottom: "fc_4_11"
  bottom: "fc_4_12"
  bottom: "fc_4_13"
  bottom: "fc_4_14"
  bottom: "fc_4_15"
  bottom: "fc_4_16"
  top: "concat_4"
}
layer {
  name: "sum_4"
  type: "InnerProduct"
  bottom: "concat_4"
  top: "sum_4"
  inner_product_param {
    num_output: 1
    weight_filler {
      type: "constant"
      value: 1
    }
    bias_filler {
      type: "constant"
      value: 0
    }
  }
}
layer {
  name: "conv_5_1"
  type: "Convolution"
  bottom: "data"
  top: "conv_5_1"
  convolution_param {
    num_output: 1
    pad: 0
    stride: 1
    weight_filler {
      type: "constant"
      value: 0
    }
    bias_filler {
      type: "constant"
      value: -1
    }
    kernel_h: 1
    kernel_w: 6
  }
}
layer {
  name: "relu_5_1"
  type: "ReLU"
  bottom: "conv_5_1"
  top: "conv_5_1"
}
layer {
  name: "fc_5_1"
  type: "InnerProduct"
  bottom: "conv_5_1"
  top: "fc_5_1"
  inner_product_param {
    num_output: 1
    weight_filler {
      type: "constant"
      value: 1
    }
    bias_filler {
      type: "constant"
      value: 0
    }
  }
}
layer {
  name: "conv_5_2"
  type: "Convolution"
  bottom: "data"
  top: "conv_5_2"
  convolution_param {
    num_output: 1
    pad: 0
    stride: 1
    weight_filler {
      type: "constant"
      value: 0
    }
    bias_filler {
      type: "constant"
      value: -1
    }
    kernel_h: 2
    kernel_w: 6
  }
}
layer {
  name: "relu_5_2"
  type: "ReLU"
  bottom: "conv_5_2"
  top: "conv_5_2"
}
layer {
  name: "fc_5_2"
  type: "InnerProduct"
  bottom: "conv_5_2"
  top: "fc_5_2"
  inner_product_param {
    num_output: 1
    weight_filler {
      type: "constant"
      value: 1
    }
    bias_filler {
      type: "constant"
      value: 0
    }
  }
}
layer {
  name: "conv_5_3"
  type: "Convolution"
  bottom: "data"
  top: "conv_5_3"
  convolution_param {
    num_output: 1
    pad: 0
    stride: 1
    weight_filler {
      type: "constant"
      value: 0
    }
    bias_filler {
      type: "constant"
      value: -1
    }
    kernel_h: 2
    kernel_w: 6
  }
}
layer {
  name: "relu_5_3"
  type: "ReLU"
  bottom: "conv_5_3"
  top: "conv_5_3"
}
layer {
  name: "fc_5_3"
  type: "InnerProduct"
  bottom: "conv_5_3"
  top: "fc_5_3"
  inner_product_param {
    num_output: 1
    weight_filler {
      type: "constant"
      value: 1
    }
    bias_filler {
      type: "constant"
      value: 0
    }
  }
}
layer {
  name: "conv_5_4"
  type: "Convolution"
  bottom: "data"
  top: "conv_5_4"
  convolution_param {
    num_output: 1
    pad: 0
    stride: 1
    weight_filler {
      type: "constant"
      value: 0
    }
    bias_filler {
      type: "constant"
      value: -1
    }
    kernel_h: 3
    kernel_w: 6
  }
}
layer {
  name: "relu_5_4"
  type: "ReLU"
  bottom: "conv_5_4"
  top: "conv_5_4"
}
layer {
  name: "fc_5_4"
  type: "InnerProduct"
  bottom: "conv_5_4"
  top: "fc_5_4"
  inner_product_param {
    num_output: 1
    weight_filler {
      type: "constant"
      value: 1
    }
    bias_filler {
      type: "constant"
      value: 0
    }
  }
}
layer {
  name: "conv_5_5"
  type: "Convolution"
  bottom: "data"
  top: "conv_5_5"
  convolution_param {
    num_output: 1
    pad: 0
    stride: 1
    weight_filler {
      type: "constant"
      value: 0
    }
    bias_filler {
      type: "constant"
      value: -1
    }
    kernel_h: 3
    kernel_w: 6
  }
}
layer {
  name: "relu_5_5"
  type: "ReLU"
  bottom: "conv_5_5"
  top: "conv_5_5"
}
layer {
  name: "fc_5_5"
  type: "InnerProduct"
  bottom: "conv_5_5"
  top: "fc_5_5"
  inner_product_param {
    num_output: 1
    weight_filler {
      type: "constant"
      value: 1
    }
    bias_filler {
      type: "constant"
      value: 0
    }
  }
}
layer {
  name: "conv_5_6"
  type: "Convolution"
  bottom: "data"
  top: "conv_5_6"
  convolution_param {
    num_output: 1
    pad: 0
    stride: 1
    weight_filler {
      type: "constant"
      value: 0
    }
    bias_filler {
      type: "constant"
      value: -1
    }
    kernel_h: 4
    kernel_w: 5
  }
}
layer {
  name: "relu_5_6"
  type: "ReLU"
  bottom: "conv_5_6"
  top: "conv_5_6"
}
layer {
  name: "fc_5_6"
  type: "InnerProduct"
  bottom: "conv_5_6"
  top: "fc_5_6"
  inner_product_param {
    num_output: 1
    weight_filler {
      type: "constant"
      value: 1
    }
    bias_filler {
      type: "constant"
      value: 0
    }
  }
}
layer {
  name: "conv_5_7"
  type: "Convolution"
  bottom: "data"
  top: "conv_5_7"
  convolution_param {
    num_output: 1
    pad: 0
    stride: 1
    weight_filler {
      type: "constant"
      value: 0
    }
    bias_filler {
      type: "constant"
      value: -1
    }
    kernel_h: 4
    kernel_w: 5
  }
}
layer {
  name: "relu_5_7"
  type: "ReLU"
  bottom: "conv_5_7"
  top: "conv_5_7"
}
layer {
  name: "fc_5_7"
  type: "InnerProduct"
  bottom: "conv_5_7"
  top: "fc_5_7"
  inner_product_param {
    num_output: 1
    weight_filler {
      type: "constant"
      value: 1
    }
    bias_filler {
      type: "constant"
      value: 0
    }
  }
}
layer {
  name: "conv_5_8"
  type: "Convolution"
  bottom: "data"
  top: "conv_5_8"
  convolution_param {
    num_output: 1
    pad: 0
    stride: 1
    weight_filler {
      type: "constant"
      value: 0
    }
    bias_filler {
      type: "constant"
      value: -1
    }
    kernel_h: 5
    kernel_w: 4
  }
}
layer {
  name: "relu_5_8"
  type: "ReLU"
  bottom: "conv_5_8"
  top: "conv_5_8"
}
layer {
  name: "fc_5_8"
  type: "InnerProduct"
  bottom: "conv_5_8"
  top: "fc_5_8"
  inner_product_param {
    num_output: 1
    weight_filler {
      type: "constant"
      value: 1
    }
    bias_filler {
      type: "constant"
      value: 0
    }
  }
}
layer {
  name: "conv_5_9"
  type: "Convolution"
  bottom: "data"
  top: "conv_5_9"
  convolution_param {
    num_output: 1
    pad: 0
    stride: 1
    weight_filler {
      type: "constant"
      value: 0
    }
    bias_filler {
      type: "constant"
      value: -1
    }
    kernel_h: 5
    kernel_w: 4
  }
}
layer {
  name: "relu_5_9"
  type: "ReLU"
  bottom: "conv_5_9"
  top: "conv_5_9"
}
layer {
  name: "fc_5_9"
  type: "InnerProduct"
  bottom: "conv_5_9"
  top: "fc_5_9"
  inner_product_param {
    num_output: 1
    weight_filler {
      type: "constant"
      value: 1
    }
    bias_filler {
      type: "constant"
      value: 0
    }
  }
}
layer {
  name: "conv_5_10"
  type: "Convolution"
  bottom: "data"
  top: "conv_5_10"
  convolution_param {
    num_output: 1
    pad: 0
    stride: 1
    weight_filler {
      type: "constant"
      value: 0
    }
    bias_filler {
      type: "constant"
      value: -1
    }
    kernel_h: 6
    kernel_w: 1
  }
}
layer {
  name: "relu_5_10"
  type: "ReLU"
  bottom: "conv_5_10"
  top: "conv_5_10"
}
layer {
  name: "fc_5_10"
  type: "InnerProduct"
  bottom: "conv_5_10"
  top: "fc_5_10"
  inner_product_param {
    num_output: 1
    weight_filler {
      type: "constant"
      value: 1
    }
    bias_filler {
      type: "constant"
      value: 0
    }
  }
}
layer {
  name: "conv_5_11"
  type: "Convolution"
  bottom: "data"
  top: "conv_5_11"
  convolution_param {
    num_output: 1
    pad: 0
    stride: 1
    weight_filler {
      type: "constant"
      value: 0
    }
    bias_filler {
      type: "constant"
      value: -1
    }
    kernel_h: 6
    kernel_w: 2
  }
}
layer {
  name: "relu_5_11"
  type: "ReLU"
  bottom: "conv_5_11"
  top: "conv_5_11"
}
layer {
  name: "fc_5_11"
  type: "InnerProduct"
  bottom: "conv_5_11"
  top: "fc_5_11"
  inner_product_param {
    num_output: 1
    weight_filler {
      type: "constant"
      value: 1
    }
    bias_filler {
      type: "constant"
      value: 0
    }
  }
}
layer {
  name: "conv_5_12"
  type: "Convolution"
  bottom: "data"
  top: "conv_5_12"
  convolution_param {
    num_output: 1
    pad: 0
    stride: 1
    weight_filler {
      type: "constant"
      value: 0
    }
    bias_filler {
      type: "constant"
      value: -1
    }
    kernel_h: 6
    kernel_w: 2
  }
}
layer {
  name: "relu_5_12"
  type: "ReLU"
  bottom: "conv_5_12"
  top: "conv_5_12"
}
layer {
  name: "fc_5_12"
  type: "InnerProduct"
  bottom: "conv_5_12"
  top: "fc_5_12"
  inner_product_param {
    num_output: 1
    weight_filler {
      type: "constant"
      value: 1
    }
    bias_filler {
      type: "constant"
      value: 0
    }
  }
}
layer {
  name: "conv_5_13"
  type: "Convolution"
  bottom: "data"
  top: "conv_5_13"
  convolution_param {
    num_output: 1
    pad: 0
    stride: 1
    weight_filler {
      type: "constant"
      value: 0
    }
    bias_filler {
      type: "constant"
      value: -1
    }
    kernel_h: 6
    kernel_w: 3
  }
}
layer {
  name: "relu_5_13"
  type: "ReLU"
  bottom: "conv_5_13"
  top: "conv_5_13"
}
layer {
  name: "fc_5_13"
  type: "InnerProduct"
  bottom: "conv_5_13"
  top: "fc_5_13"
  inner_product_param {
    num_output: 1
    weight_filler {
      type: "constant"
      value: 1
    }
    bias_filler {
      type: "constant"
      value: 0
    }
  }
}
layer {
  name: "conv_5_14"
  type: "Convolution"
  bottom: "data"
  top: "conv_5_14"
  convolution_param {
    num_output: 1
    pad: 0
    stride: 1
    weight_filler {
      type: "constant"
      value: 0
    }
    bias_filler {
      type: "constant"
      value: -1
    }
    kernel_h: 6
    kernel_w: 3
  }
}
layer {
  name: "relu_5_14"
  type: "ReLU"
  bottom: "conv_5_14"
  top: "conv_5_14"
}
layer {
  name: "fc_5_14"
  type: "InnerProduct"
  bottom: "conv_5_14"
  top: "fc_5_14"
  inner_product_param {
    num_output: 1
    weight_filler {
      type: "constant"
      value: 1
    }
    bias_filler {
      type: "constant"
      value: 0
    }
  }
}
layer {
  name: "concat_5"
  type: "Concat"
  bottom: "fc_5_1"
  bottom: "fc_5_2"
  bottom: "fc_5_3"
  bottom: "fc_5_4"
  bottom: "fc_5_5"
  bottom: "fc_5_6"
  bottom: "fc_5_7"
  bottom: "fc_5_8"
  bottom: "fc_5_9"
  bottom: "fc_5_10"
  bottom: "fc_5_11"
  bottom: "fc_5_12"
  bottom: "fc_5_13"
  bottom: "fc_5_14"
  top: "concat_5"
}
layer {
  name: "sum_5"
  type: "InnerProduct"
  bottom: "concat_5"
  top: "sum_5"
  inner_product_param {
    num_output: 1
    weight_filler {
      type: "constant"
      value: 1
    }
    bias_filler {
      type: "constant"
      value: 0
    }
  }
}
layer {
  name: "conv_6_1"
  type: "Convolution"
  bottom: "data"
  top: "conv_6_1"
  convolution_param {
    num_output: 1
    pad: 0
    stride: 1
    weight_filler {
      type: "constant"
      value: 0
    }
    bias_filler {
      type: "constant"
      value: -1
    }
    kernel_h: 1
    kernel_w: 7
  }
}
layer {
  name: "relu_6_1"
  type: "ReLU"
  bottom: "conv_6_1"
  top: "conv_6_1"
}
layer {
  name: "fc_6_1"
  type: "InnerProduct"
  bottom: "conv_6_1"
  top: "fc_6_1"
  inner_product_param {
    num_output: 1
    weight_filler {
      type: "constant"
      value: 1
    }
    bias_filler {
      type: "constant"
      value: 0
    }
  }
}
layer {
  name: "conv_6_2"
  type: "Convolution"
  bottom: "data"
  top: "conv_6_2"
  convolution_param {
    num_output: 1
    pad: 0
    stride: 1
    weight_filler {
      type: "constant"
      value: 0
    }
    bias_filler {
      type: "constant"
      value: -1
    }
    kernel_h: 2
    kernel_w: 7
  }
}
layer {
  name: "relu_6_2"
  type: "ReLU"
  bottom: "conv_6_2"
  top: "conv_6_2"
}
layer {
  name: "fc_6_2"
  type: "InnerProduct"
  bottom: "conv_6_2"
  top: "fc_6_2"
  inner_product_param {
    num_output: 1
    weight_filler {
      type: "constant"
      value: 1
    }
    bias_filler {
      type: "constant"
      value: 0
    }
  }
}
layer {
  name: "conv_6_3"
  type: "Convolution"
  bottom: "data"
  top: "conv_6_3"
  convolution_param {
    num_output: 1
    pad: 0
    stride: 1
    weight_filler {
      type: "constant"
      value: 0
    }
    bias_filler {
      type: "constant"
      value: -1
    }
    kernel_h: 2
    kernel_w: 7
  }
}
layer {
  name: "relu_6_3"
  type: "ReLU"
  bottom: "conv_6_3"
  top: "conv_6_3"
}
layer {
  name: "fc_6_3"
  type: "InnerProduct"
  bottom: "conv_6_3"
  top: "fc_6_3"
  inner_product_param {
    num_output: 1
    weight_filler {
      type: "constant"
      value: 1
    }
    bias_filler {
      type: "constant"
      value: 0
    }
  }
}
layer {
  name: "conv_6_4"
  type: "Convolution"
  bottom: "data"
  top: "conv_6_4"
  convolution_param {
    num_output: 1
    pad: 0
    stride: 1
    weight_filler {
      type: "constant"
      value: 0
    }
    bias_filler {
      type: "constant"
      value: -1
    }
    kernel_h: 3
    kernel_w: 7
  }
}
layer {
  name: "relu_6_4"
  type: "ReLU"
  bottom: "conv_6_4"
  top: "conv_6_4"
}
layer {
  name: "fc_6_4"
  type: "InnerProduct"
  bottom: "conv_6_4"
  top: "fc_6_4"
  inner_product_param {
    num_output: 1
    weight_filler {
      type: "constant"
      value: 1
    }
    bias_filler {
      type: "constant"
      value: 0
    }
  }
}
layer {
  name: "conv_6_5"
  type: "Convolution"
  bottom: "data"
  top: "conv_6_5"
  convolution_param {
    num_output: 1
    pad: 0
    stride: 1
    weight_filler {
      type: "constant"
      value: 0
    }
    bias_filler {
      type: "constant"
      value: -1
    }
    kernel_h: 3
    kernel_w: 7
  }
}
layer {
  name: "relu_6_5"
  type: "ReLU"
  bottom: "conv_6_5"
  top: "conv_6_5"
}
layer {
  name: "fc_6_5"
  type: "InnerProduct"
  bottom: "conv_6_5"
  top: "fc_6_5"
  inner_product_param {
    num_output: 1
    weight_filler {
      type: "constant"
      value: 1
    }
    bias_filler {
      type: "constant"
      value: 0
    }
  }
}
layer {
  name: "conv_6_6"
  type: "Convolution"
  bottom: "data"
  top: "conv_6_6"
  convolution_param {
    num_output: 1
    pad: 0
    stride: 1
    weight_filler {
      type: "constant"
      value: 0
    }
    bias_filler {
      type: "constant"
      value: -1
    }
    kernel_h: 4
    kernel_w: 6
  }
}
layer {
  name: "relu_6_6"
  type: "ReLU"
  bottom: "conv_6_6"
  top: "conv_6_6"
}
layer {
  name: "fc_6_6"
  type: "InnerProduct"
  bottom: "conv_6_6"
  top: "fc_6_6"
  inner_product_param {
    num_output: 1
    weight_filler {
      type: "constant"
      value: 1
    }
    bias_filler {
      type: "constant"
      value: 0
    }
  }
}
layer {
  name: "conv_6_7"
  type: "Convolution"
  bottom: "data"
  top: "conv_6_7"
  convolution_param {
    num_output: 1
    pad: 0
    stride: 1
    weight_filler {
      type: "constant"
      value: 0
    }
    bias_filler {
      type: "constant"
      value: -1
    }
    kernel_h: 4
    kernel_w: 6
  }
}
layer {
  name: "relu_6_7"
  type: "ReLU"
  bottom: "conv_6_7"
  top: "conv_6_7"
}
layer {
  name: "fc_6_7"
  type: "InnerProduct"
  bottom: "conv_6_7"
  top: "fc_6_7"
  inner_product_param {
    num_output: 1
    weight_filler {
      type: "constant"
      value: 1
    }
    bias_filler {
      type: "constant"
      value: 0
    }
  }
}
layer {
  name: "conv_6_8"
  type: "Convolution"
  bottom: "data"
  top: "conv_6_8"
  convolution_param {
    num_output: 1
    pad: 0
    stride: 1
    weight_filler {
      type: "constant"
      value: 0
    }
    bias_filler {
      type: "constant"
      value: -1
    }
    kernel_h: 5
    kernel_w: 5
  }
}
layer {
  name: "relu_6_8"
  type: "ReLU"
  bottom: "conv_6_8"
  top: "conv_6_8"
}
layer {
  name: "fc_6_8"
  type: "InnerProduct"
  bottom: "conv_6_8"
  top: "fc_6_8"
  inner_product_param {
    num_output: 1
    weight_filler {
      type: "constant"
      value: 1
    }
    bias_filler {
      type: "constant"
      value: 0
    }
  }
}
layer {
  name: "conv_6_9"
  type: "Convolution"
  bottom: "data"
  top: "conv_6_9"
  convolution_param {
    num_output: 1
    pad: 0
    stride: 1
    weight_filler {
      type: "constant"
      value: 0
    }
    bias_filler {
      type: "constant"
      value: -1
    }
    kernel_h: 5
    kernel_w: 5
  }
}
layer {
  name: "relu_6_9"
  type: "ReLU"
  bottom: "conv_6_9"
  top: "conv_6_9"
}
layer {
  name: "fc_6_9"
  type: "InnerProduct"
  bottom: "conv_6_9"
  top: "fc_6_9"
  inner_product_param {
    num_output: 1
    weight_filler {
      type: "constant"
      value: 1
    }
    bias_filler {
      type: "constant"
      value: 0
    }
  }
}
layer {
  name: "conv_6_10"
  type: "Convolution"
  bottom: "data"
  top: "conv_6_10"
  convolution_param {
    num_output: 1
    pad: 0
    stride: 1
    weight_filler {
      type: "constant"
      value: 0
    }
    bias_filler {
      type: "constant"
      value: -1
    }
    kernel_h: 5
    kernel_w: 6
  }
}
layer {
  name: "relu_6_10"
  type: "ReLU"
  bottom: "conv_6_10"
  top: "conv_6_10"
}
layer {
  name: "fc_6_10"
  type: "InnerProduct"
  bottom: "conv_6_10"
  top: "fc_6_10"
  inner_product_param {
    num_output: 1
    weight_filler {
      type: "constant"
      value: 1
    }
    bias_filler {
      type: "constant"
      value: 0
    }
  }
}
layer {
  name: "conv_6_11"
  type: "Convolution"
  bottom: "data"
  top: "conv_6_11"
  convolution_param {
    num_output: 1
    pad: 0
    stride: 1
    weight_filler {
      type: "constant"
      value: 0
    }
    bias_filler {
      type: "constant"
      value: -1
    }
    kernel_h: 5
    kernel_w: 6
  }
}
layer {
  name: "relu_6_11"
  type: "ReLU"
  bottom: "conv_6_11"
  top: "conv_6_11"
}
layer {
  name: "fc_6_11"
  type: "InnerProduct"
  bottom: "conv_6_11"
  top: "fc_6_11"
  inner_product_param {
    num_output: 1
    weight_filler {
      type: "constant"
      value: 1
    }
    bias_filler {
      type: "constant"
      value: 0
    }
  }
}
layer {
  name: "conv_6_12"
  type: "Convolution"
  bottom: "data"
  top: "conv_6_12"
  convolution_param {
    num_output: 1
    pad: 0
    stride: 1
    weight_filler {
      type: "constant"
      value: 0
    }
    bias_filler {
      type: "constant"
      value: -1
    }
    kernel_h: 6
    kernel_w: 4
  }
}
layer {
  name: "relu_6_12"
  type: "ReLU"
  bottom: "conv_6_12"
  top: "conv_6_12"
}
layer {
  name: "fc_6_12"
  type: "InnerProduct"
  bottom: "conv_6_12"
  top: "fc_6_12"
  inner_product_param {
    num_output: 1
    weight_filler {
      type: "constant"
      value: 1
    }
    bias_filler {
      type: "constant"
      value: 0
    }
  }
}
layer {
  name: "conv_6_13"
  type: "Convolution"
  bottom: "data"
  top: "conv_6_13"
  convolution_param {
    num_output: 1
    pad: 0
    stride: 1
    weight_filler {
      type: "constant"
      value: 0
    }
    bias_filler {
      type: "constant"
      value: -1
    }
    kernel_h: 6
    kernel_w: 4
  }
}
layer {
  name: "relu_6_13"
  type: "ReLU"
  bottom: "conv_6_13"
  top: "conv_6_13"
}
layer {
  name: "fc_6_13"
  type: "InnerProduct"
  bottom: "conv_6_13"
  top: "fc_6_13"
  inner_product_param {
    num_output: 1
    weight_filler {
      type: "constant"
      value: 1
    }
    bias_filler {
      type: "constant"
      value: 0
    }
  }
}
layer {
  name: "conv_6_14"
  type: "Convolution"
  bottom: "data"
  top: "conv_6_14"
  convolution_param {
    num_output: 1
    pad: 0
    stride: 1
    weight_filler {
      type: "constant"
      value: 0
    }
    bias_filler {
      type: "constant"
      value: -1
    }
    kernel_h: 6
    kernel_w: 5
  }
}
layer {
  name: "relu_6_14"
  type: "ReLU"
  bottom: "conv_6_14"
  top: "conv_6_14"
}
layer {
  name: "fc_6_14"
  type: "InnerProduct"
  bottom: "conv_6_14"
  top: "fc_6_14"
  inner_product_param {
    num_output: 1
    weight_filler {
      type: "constant"
      value: 1
    }
    bias_filler {
      type: "constant"
      value: 0
    }
  }
}
layer {
  name: "conv_6_15"
  type: "Convolution"
  bottom: "data"
  top: "conv_6_15"
  convolution_param {
    num_output: 1
    pad: 0
    stride: 1
    weight_filler {
      type: "constant"
      value: 0
    }
    bias_filler {
      type: "constant"
      value: -1
    }
    kernel_h: 6
    kernel_w: 5
  }
}
layer {
  name: "relu_6_15"
  type: "ReLU"
  bottom: "conv_6_15"
  top: "conv_6_15"
}
layer {
  name: "fc_6_15"
  type: "InnerProduct"
  bottom: "conv_6_15"
  top: "fc_6_15"
  inner_product_param {
    num_output: 1
    weight_filler {
      type: "constant"
      value: 1
    }
    bias_filler {
      type: "constant"
      value: 0
    }
  }
}
layer {
  name: "conv_6_16"
  type: "Convolution"
  bottom: "data"
  top: "conv_6_16"
  convolution_param {
    num_output: 1
    pad: 0
    stride: 1
    weight_filler {
      type: "constant"
      value: 0
    }
    bias_filler {
      type: "constant"
      value: -1
    }
    kernel_h: 7
    kernel_w: 1
  }
}
layer {
  name: "relu_6_16"
  type: "ReLU"
  bottom: "conv_6_16"
  top: "conv_6_16"
}
layer {
  name: "fc_6_16"
  type: "InnerProduct"
  bottom: "conv_6_16"
  top: "fc_6_16"
  inner_product_param {
    num_output: 1
    weight_filler {
      type: "constant"
      value: 1
    }
    bias_filler {
      type: "constant"
      value: 0
    }
  }
}
layer {
  name: "conv_6_17"
  type: "Convolution"
  bottom: "data"
  top: "conv_6_17"
  convolution_param {
    num_output: 1
    pad: 0
    stride: 1
    weight_filler {
      type: "constant"
      value: 0
    }
    bias_filler {
      type: "constant"
      value: -1
    }
    kernel_h: 7
    kernel_w: 2
  }
}
layer {
  name: "relu_6_17"
  type: "ReLU"
  bottom: "conv_6_17"
  top: "conv_6_17"
}
layer {
  name: "fc_6_17"
  type: "InnerProduct"
  bottom: "conv_6_17"
  top: "fc_6_17"
  inner_product_param {
    num_output: 1
    weight_filler {
      type: "constant"
      value: 1
    }
    bias_filler {
      type: "constant"
      value: 0
    }
  }
}
layer {
  name: "conv_6_18"
  type: "Convolution"
  bottom: "data"
  top: "conv_6_18"
  convolution_param {
    num_output: 1
    pad: 0
    stride: 1
    weight_filler {
      type: "constant"
      value: 0
    }
    bias_filler {
      type: "constant"
      value: -1
    }
    kernel_h: 7
    kernel_w: 2
  }
}
layer {
  name: "relu_6_18"
  type: "ReLU"
  bottom: "conv_6_18"
  top: "conv_6_18"
}
layer {
  name: "fc_6_18"
  type: "InnerProduct"
  bottom: "conv_6_18"
  top: "fc_6_18"
  inner_product_param {
    num_output: 1
    weight_filler {
      type: "constant"
      value: 1
    }
    bias_filler {
      type: "constant"
      value: 0
    }
  }
}
layer {
  name: "conv_6_19"
  type: "Convolution"
  bottom: "data"
  top: "conv_6_19"
  convolution_param {
    num_output: 1
    pad: 0
    stride: 1
    weight_filler {
      type: "constant"
      value: 0
    }
    bias_filler {
      type: "constant"
      value: -1
    }
    kernel_h: 7
    kernel_w: 3
  }
}
layer {
  name: "relu_6_19"
  type: "ReLU"
  bottom: "conv_6_19"
  top: "conv_6_19"
}
layer {
  name: "fc_6_19"
  type: "InnerProduct"
  bottom: "conv_6_19"
  top: "fc_6_19"
  inner_product_param {
    num_output: 1
    weight_filler {
      type: "constant"
      value: 1
    }
    bias_filler {
      type: "constant"
      value: 0
    }
  }
}
layer {
  name: "conv_6_20"
  type: "Convolution"
  bottom: "data"
  top: "conv_6_20"
  convolution_param {
    num_output: 1
    pad: 0
    stride: 1
    weight_filler {
      type: "constant"
      value: 0
    }
    bias_filler {
      type: "constant"
      value: -1
    }
    kernel_h: 7
    kernel_w: 3
  }
}
layer {
  name: "relu_6_20"
  type: "ReLU"
  bottom: "conv_6_20"
  top: "conv_6_20"
}
layer {
  name: "fc_6_20"
  type: "InnerProduct"
  bottom: "conv_6_20"
  top: "fc_6_20"
  inner_product_param {
    num_output: 1
    weight_filler {
      type: "constant"
      value: 1
    }
    bias_filler {
      type: "constant"
      value: 0
    }
  }
}
layer {
  name: "concat_6"
  type: "Concat"
  bottom: "fc_6_1"
  bottom: "fc_6_2"
  bottom: "fc_6_3"
  bottom: "fc_6_4"
  bottom: "fc_6_5"
  bottom: "fc_6_6"
  bottom: "fc_6_7"
  bottom: "fc_6_8"
  bottom: "fc_6_9"
  bottom: "fc_6_10"
  bottom: "fc_6_11"
  bottom: "fc_6_12"
  bottom: "fc_6_13"
  bottom: "fc_6_14"
  bottom: "fc_6_15"
  bottom: "fc_6_16"
  bottom: "fc_6_17"
  bottom: "fc_6_18"
  bottom: "fc_6_19"
  bottom: "fc_6_20"
  top: "concat_6"
}
layer {
  name: "sum_6"
  type: "InnerProduct"
  bottom: "concat_6"
  top: "sum_6"
  inner_product_param {
    num_output: 1
    weight_filler {
      type: "constant"
      value: 1
    }
    bias_filler {
      type: "constant"
      value: 0
    }
  }
}
layer {
  name: "conv_7_1"
  type: "Convolution"
  bottom: "data"
  top: "conv_7_1"
  convolution_param {
    num_output: 1
    pad: 0
    stride: 1
    weight_filler {
      type: "constant"
      value: 0
    }
    bias_filler {
      type: "constant"
      value: -1
    }
    kernel_h: 1
    kernel_w: 8
  }
}
layer {
  name: "relu_7_1"
  type: "ReLU"
  bottom: "conv_7_1"
  top: "conv_7_1"
}
layer {
  name: "fc_7_1"
  type: "InnerProduct"
  bottom: "conv_7_1"
  top: "fc_7_1"
  inner_product_param {
    num_output: 1
    weight_filler {
      type: "constant"
      value: 1
    }
    bias_filler {
      type: "constant"
      value: 0
    }
  }
}
layer {
  name: "conv_7_2"
  type: "Convolution"
  bottom: "data"
  top: "conv_7_2"
  convolution_param {
    num_output: 1
    pad: 0
    stride: 1
    weight_filler {
      type: "constant"
      value: 0
    }
    bias_filler {
      type: "constant"
      value: -1
    }
    kernel_h: 2
    kernel_w: 8
  }
}
layer {
  name: "relu_7_2"
  type: "ReLU"
  bottom: "conv_7_2"
  top: "conv_7_2"
}
layer {
  name: "fc_7_2"
  type: "InnerProduct"
  bottom: "conv_7_2"
  top: "fc_7_2"
  inner_product_param {
    num_output: 1
    weight_filler {
      type: "constant"
      value: 1
    }
    bias_filler {
      type: "constant"
      value: 0
    }
  }
}
layer {
  name: "conv_7_3"
  type: "Convolution"
  bottom: "data"
  top: "conv_7_3"
  convolution_param {
    num_output: 1
    pad: 0
    stride: 1
    weight_filler {
      type: "constant"
      value: 0
    }
    bias_filler {
      type: "constant"
      value: -1
    }
    kernel_h: 2
    kernel_w: 8
  }
}
layer {
  name: "relu_7_3"
  type: "ReLU"
  bottom: "conv_7_3"
  top: "conv_7_3"
}
layer {
  name: "fc_7_3"
  type: "InnerProduct"
  bottom: "conv_7_3"
  top: "fc_7_3"
  inner_product_param {
    num_output: 1
    weight_filler {
      type: "constant"
      value: 1
    }
    bias_filler {
      type: "constant"
      value: 0
    }
  }
}
layer {
  name: "conv_7_4"
  type: "Convolution"
  bottom: "data"
  top: "conv_7_4"
  convolution_param {
    num_output: 1
    pad: 0
    stride: 1
    weight_filler {
      type: "constant"
      value: 0
    }
    bias_filler {
      type: "constant"
      value: -1
    }
    kernel_h: 3
    kernel_w: 8
  }
}
layer {
  name: "relu_7_4"
  type: "ReLU"
  bottom: "conv_7_4"
  top: "conv_7_4"
}
layer {
  name: "fc_7_4"
  type: "InnerProduct"
  bottom: "conv_7_4"
  top: "fc_7_4"
  inner_product_param {
    num_output: 1
    weight_filler {
      type: "constant"
      value: 1
    }
    bias_filler {
      type: "constant"
      value: 0
    }
  }
}
layer {
  name: "conv_7_5"
  type: "Convolution"
  bottom: "data"
  top: "conv_7_5"
  convolution_param {
    num_output: 1
    pad: 0
    stride: 1
    weight_filler {
      type: "constant"
      value: 0
    }
    bias_filler {
      type: "constant"
      value: -1
    }
    kernel_h: 3
    kernel_w: 8
  }
}
layer {
  name: "relu_7_5"
  type: "ReLU"
  bottom: "conv_7_5"
  top: "conv_7_5"
}
layer {
  name: "fc_7_5"
  type: "InnerProduct"
  bottom: "conv_7_5"
  top: "fc_7_5"
  inner_product_param {
    num_output: 1
    weight_filler {
      type: "constant"
      value: 1
    }
    bias_filler {
      type: "constant"
      value: 0
    }
  }
}
layer {
  name: "conv_7_6"
  type: "Convolution"
  bottom: "data"
  top: "conv_7_6"
  convolution_param {
    num_output: 1
    pad: 0
    stride: 1
    weight_filler {
      type: "constant"
      value: 0
    }
    bias_filler {
      type: "constant"
      value: -1
    }
    kernel_h: 4
    kernel_w: 7
  }
}
layer {
  name: "relu_7_6"
  type: "ReLU"
  bottom: "conv_7_6"
  top: "conv_7_6"
}
layer {
  name: "fc_7_6"
  type: "InnerProduct"
  bottom: "conv_7_6"
  top: "fc_7_6"
  inner_product_param {
    num_output: 1
    weight_filler {
      type: "constant"
      value: 1
    }
    bias_filler {
      type: "constant"
      value: 0
    }
  }
}
layer {
  name: "conv_7_7"
  type: "Convolution"
  bottom: "data"
  top: "conv_7_7"
  convolution_param {
    num_output: 1
    pad: 0
    stride: 1
    weight_filler {
      type: "constant"
      value: 0
    }
    bias_filler {
      type: "constant"
      value: -1
    }
    kernel_h: 4
    kernel_w: 7
  }
}
layer {
  name: "relu_7_7"
  type: "ReLU"
  bottom: "conv_7_7"
  top: "conv_7_7"
}
layer {
  name: "fc_7_7"
  type: "InnerProduct"
  bottom: "conv_7_7"
  top: "fc_7_7"
  inner_product_param {
    num_output: 1
    weight_filler {
      type: "constant"
      value: 1
    }
    bias_filler {
      type: "constant"
      value: 0
    }
  }
}
layer {
  name: "conv_7_8"
  type: "Convolution"
  bottom: "data"
  top: "conv_7_8"
  convolution_param {
    num_output: 1
    pad: 0
    stride: 1
    weight_filler {
      type: "constant"
      value: 0
    }
    bias_filler {
      type: "constant"
      value: -1
    }
    kernel_h: 5
    kernel_w: 7
  }
}
layer {
  name: "relu_7_8"
  type: "ReLU"
  bottom: "conv_7_8"
  top: "conv_7_8"
}
layer {
  name: "fc_7_8"
  type: "InnerProduct"
  bottom: "conv_7_8"
  top: "fc_7_8"
  inner_product_param {
    num_output: 1
    weight_filler {
      type: "constant"
      value: 1
    }
    bias_filler {
      type: "constant"
      value: 0
    }
  }
}
layer {
  name: "conv_7_9"
  type: "Convolution"
  bottom: "data"
  top: "conv_7_9"
  convolution_param {
    num_output: 1
    pad: 0
    stride: 1
    weight_filler {
      type: "constant"
      value: 0
    }
    bias_filler {
      type: "constant"
      value: -1
    }
    kernel_h: 5
    kernel_w: 7
  }
}
layer {
  name: "relu_7_9"
  type: "ReLU"
  bottom: "conv_7_9"
  top: "conv_7_9"
}
layer {
  name: "fc_7_9"
  type: "InnerProduct"
  bottom: "conv_7_9"
  top: "fc_7_9"
  inner_product_param {
    num_output: 1
    weight_filler {
      type: "constant"
      value: 1
    }
    bias_filler {
      type: "constant"
      value: 0
    }
  }
}
layer {
  name: "conv_7_10"
  type: "Convolution"
  bottom: "data"
  top: "conv_7_10"
  convolution_param {
    num_output: 1
    pad: 0
    stride: 1
    weight_filler {
      type: "constant"
      value: 0
    }
    bias_filler {
      type: "constant"
      value: -1
    }
    kernel_h: 6
    kernel_w: 6
  }
}
layer {
  name: "relu_7_10"
  type: "ReLU"
  bottom: "conv_7_10"
  top: "conv_7_10"
}
layer {
  name: "fc_7_10"
  type: "InnerProduct"
  bottom: "conv_7_10"
  top: "fc_7_10"
  inner_product_param {
    num_output: 1
    weight_filler {
      type: "constant"
      value: 1
    }
    bias_filler {
      type: "constant"
      value: 0
    }
  }
}
layer {
  name: "conv_7_11"
  type: "Convolution"
  bottom: "data"
  top: "conv_7_11"
  convolution_param {
    num_output: 1
    pad: 0
    stride: 1
    weight_filler {
      type: "constant"
      value: 0
    }
    bias_filler {
      type: "constant"
      value: -1
    }
    kernel_h: 6
    kernel_w: 6
  }
}
layer {
  name: "relu_7_11"
  type: "ReLU"
  bottom: "conv_7_11"
  top: "conv_7_11"
}
layer {
  name: "fc_7_11"
  type: "InnerProduct"
  bottom: "conv_7_11"
  top: "fc_7_11"
  inner_product_param {
    num_output: 1
    weight_filler {
      type: "constant"
      value: 1
    }
    bias_filler {
      type: "constant"
      value: 0
    }
  }
}
layer {
  name: "conv_7_12"
  type: "Convolution"
  bottom: "data"
  top: "conv_7_12"
  convolution_param {
    num_output: 1
    pad: 0
    stride: 1
    weight_filler {
      type: "constant"
      value: 0
    }
    bias_filler {
      type: "constant"
      value: -1
    }
    kernel_h: 7
    kernel_w: 4
  }
}
layer {
  name: "relu_7_12"
  type: "ReLU"
  bottom: "conv_7_12"
  top: "conv_7_12"
}
layer {
  name: "fc_7_12"
  type: "InnerProduct"
  bottom: "conv_7_12"
  top: "fc_7_12"
  inner_product_param {
    num_output: 1
    weight_filler {
      type: "constant"
      value: 1
    }
    bias_filler {
      type: "constant"
      value: 0
    }
  }
}
layer {
  name: "conv_7_13"
  type: "Convolution"
  bottom: "data"
  top: "conv_7_13"
  convolution_param {
    num_output: 1
    pad: 0
    stride: 1
    weight_filler {
      type: "constant"
      value: 0
    }
    bias_filler {
      type: "constant"
      value: -1
    }
    kernel_h: 7
    kernel_w: 4
  }
}
layer {
  name: "relu_7_13"
  type: "ReLU"
  bottom: "conv_7_13"
  top: "conv_7_13"
}
layer {
  name: "fc_7_13"
  type: "InnerProduct"
  bottom: "conv_7_13"
  top: "fc_7_13"
  inner_product_param {
    num_output: 1
    weight_filler {
      type: "constant"
      value: 1
    }
    bias_filler {
      type: "constant"
      value: 0
    }
  }
}
layer {
  name: "conv_7_14"
  type: "Convolution"
  bottom: "data"
  top: "conv_7_14"
  convolution_param {
    num_output: 1
    pad: 0
    stride: 1
    weight_filler {
      type: "constant"
      value: 0
    }
    bias_filler {
      type: "constant"
      value: -1
    }
    kernel_h: 7
    kernel_w: 5
  }
}
layer {
  name: "relu_7_14"
  type: "ReLU"
  bottom: "conv_7_14"
  top: "conv_7_14"
}
layer {
  name: "fc_7_14"
  type: "InnerProduct"
  bottom: "conv_7_14"
  top: "fc_7_14"
  inner_product_param {
    num_output: 1
    weight_filler {
      type: "constant"
      value: 1
    }
    bias_filler {
      type: "constant"
      value: 0
    }
  }
}
layer {
  name: "conv_7_15"
  type: "Convolution"
  bottom: "data"
  top: "conv_7_15"
  convolution_param {
    num_output: 1
    pad: 0
    stride: 1
    weight_filler {
      type: "constant"
      value: 0
    }
    bias_filler {
      type: "constant"
      value: -1
    }
    kernel_h: 7
    kernel_w: 5
  }
}
layer {
  name: "relu_7_15"
  type: "ReLU"
  bottom: "conv_7_15"
  top: "conv_7_15"
}
layer {
  name: "fc_7_15"
  type: "InnerProduct"
  bottom: "conv_7_15"
  top: "fc_7_15"
  inner_product_param {
    num_output: 1
    weight_filler {
      type: "constant"
      value: 1
    }
    bias_filler {
      type: "constant"
      value: 0
    }
  }
}
layer {
  name: "conv_7_16"
  type: "Convolution"
  bottom: "data"
  top: "conv_7_16"
  convolution_param {
    num_output: 1
    pad: 0
    stride: 1
    weight_filler {
      type: "constant"
      value: 0
    }
    bias_filler {
      type: "constant"
      value: -1
    }
    kernel_h: 8
    kernel_w: 1
  }
}
layer {
  name: "relu_7_16"
  type: "ReLU"
  bottom: "conv_7_16"
  top: "conv_7_16"
}
layer {
  name: "fc_7_16"
  type: "InnerProduct"
  bottom: "conv_7_16"
  top: "fc_7_16"
  inner_product_param {
    num_output: 1
    weight_filler {
      type: "constant"
      value: 1
    }
    bias_filler {
      type: "constant"
      value: 0
    }
  }
}
layer {
  name: "conv_7_17"
  type: "Convolution"
  bottom: "data"
  top: "conv_7_17"
  convolution_param {
    num_output: 1
    pad: 0
    stride: 1
    weight_filler {
      type: "constant"
      value: 0
    }
    bias_filler {
      type: "constant"
      value: -1
    }
    kernel_h: 8
    kernel_w: 2
  }
}
layer {
  name: "relu_7_17"
  type: "ReLU"
  bottom: "conv_7_17"
  top: "conv_7_17"
}
layer {
  name: "fc_7_17"
  type: "InnerProduct"
  bottom: "conv_7_17"
  top: "fc_7_17"
  inner_product_param {
    num_output: 1
    weight_filler {
      type: "constant"
      value: 1
    }
    bias_filler {
      type: "constant"
      value: 0
    }
  }
}
layer {
  name: "conv_7_18"
  type: "Convolution"
  bottom: "data"
  top: "conv_7_18"
  convolution_param {
    num_output: 1
    pad: 0
    stride: 1
    weight_filler {
      type: "constant"
      value: 0
    }
    bias_filler {
      type: "constant"
      value: -1
    }
    kernel_h: 8
    kernel_w: 2
  }
}
layer {
  name: "relu_7_18"
  type: "ReLU"
  bottom: "conv_7_18"
  top: "conv_7_18"
}
layer {
  name: "fc_7_18"
  type: "InnerProduct"
  bottom: "conv_7_18"
  top: "fc_7_18"
  inner_product_param {
    num_output: 1
    weight_filler {
      type: "constant"
      value: 1
    }
    bias_filler {
      type: "constant"
      value: 0
    }
  }
}
layer {
  name: "conv_7_19"
  type: "Convolution"
  bottom: "data"
  top: "conv_7_19"
  convolution_param {
    num_output: 1
    pad: 0
    stride: 1
    weight_filler {
      type: "constant"
      value: 0
    }
    bias_filler {
      type: "constant"
      value: -1
    }
    kernel_h: 8
    kernel_w: 3
  }
}
layer {
  name: "relu_7_19"
  type: "ReLU"
  bottom: "conv_7_19"
  top: "conv_7_19"
}
layer {
  name: "fc_7_19"
  type: "InnerProduct"
  bottom: "conv_7_19"
  top: "fc_7_19"
  inner_product_param {
    num_output: 1
    weight_filler {
      type: "constant"
      value: 1
    }
    bias_filler {
      type: "constant"
      value: 0
    }
  }
}
layer {
  name: "conv_7_20"
  type: "Convolution"
  bottom: "data"
  top: "conv_7_20"
  convolution_param {
    num_output: 1
    pad: 0
    stride: 1
    weight_filler {
      type: "constant"
      value: 0
    }
    bias_filler {
      type: "constant"
      value: -1
    }
    kernel_h: 8
    kernel_w: 3
  }
}
layer {
  name: "relu_7_20"
  type: "ReLU"
  bottom: "conv_7_20"
  top: "conv_7_20"
}
layer {
  name: "fc_7_20"
  type: "InnerProduct"
  bottom: "conv_7_20"
  top: "fc_7_20"
  inner_product_param {
    num_output: 1
    weight_filler {
      type: "constant"
      value: 1
    }
    bias_filler {
      type: "constant"
      value: 0
    }
  }
}
layer {
  name: "concat_7"
  type: "Concat"
  bottom: "fc_7_1"
  bottom: "fc_7_2"
  bottom: "fc_7_3"
  bottom: "fc_7_4"
  bottom: "fc_7_5"
  bottom: "fc_7_6"
  bottom: "fc_7_7"
  bottom: "fc_7_8"
  bottom: "fc_7_9"
  bottom: "fc_7_10"
  bottom: "fc_7_11"
  bottom: "fc_7_12"
  bottom: "fc_7_13"
  bottom: "fc_7_14"
  bottom: "fc_7_15"
  bottom: "fc_7_16"
  bottom: "fc_7_17"
  bottom: "fc_7_18"
  bottom: "fc_7_19"
  bottom: "fc_7_20"
  top: "concat_7"
}
layer {
  name: "sum_7"
  type: "InnerProduct"
  bottom: "concat_7"
  top: "sum_7"
  inner_product_param {
    num_output: 1
    weight_filler {
      type: "constant"
      value: 1
    }
    bias_filler {
      type: "constant"
      value: 0
    }
  }
}
layer {
  name: "conv_8_1"
  type: "Convolution"
  bottom: "data"
  top: "conv_8_1"
  convolution_param {
    num_output: 1
    pad: 0
    stride: 1
    weight_filler {
      type: "constant"
      value: 0
    }
    bias_filler {
      type: "constant"
      value: -1
    }
    kernel_h: 1
    kernel_w: 9
  }
}
layer {
  name: "relu_8_1"
  type: "ReLU"
  bottom: "conv_8_1"
  top: "conv_8_1"
}
layer {
  name: "fc_8_1"
  type: "InnerProduct"
  bottom: "conv_8_1"
  top: "fc_8_1"
  inner_product_param {
    num_output: 1
    weight_filler {
      type: "constant"
      value: 1
    }
    bias_filler {
      type: "constant"
      value: 0
    }
  }
}
layer {
  name: "conv_8_2"
  type: "Convolution"
  bottom: "data"
  top: "conv_8_2"
  convolution_param {
    num_output: 1
    pad: 0
    stride: 1
    weight_filler {
      type: "constant"
      value: 0
    }
    bias_filler {
      type: "constant"
      value: -1
    }
    kernel_h: 2
    kernel_w: 9
  }
}
layer {
  name: "relu_8_2"
  type: "ReLU"
  bottom: "conv_8_2"
  top: "conv_8_2"
}
layer {
  name: "fc_8_2"
  type: "InnerProduct"
  bottom: "conv_8_2"
  top: "fc_8_2"
  inner_product_param {
    num_output: 1
    weight_filler {
      type: "constant"
      value: 1
    }
    bias_filler {
      type: "constant"
      value: 0
    }
  }
}
layer {
  name: "conv_8_3"
  type: "Convolution"
  bottom: "data"
  top: "conv_8_3"
  convolution_param {
    num_output: 1
    pad: 0
    stride: 1
    weight_filler {
      type: "constant"
      value: 0
    }
    bias_filler {
      type: "constant"
      value: -1
    }
    kernel_h: 2
    kernel_w: 9
  }
}
layer {
  name: "relu_8_3"
  type: "ReLU"
  bottom: "conv_8_3"
  top: "conv_8_3"
}
layer {
  name: "fc_8_3"
  type: "InnerProduct"
  bottom: "conv_8_3"
  top: "fc_8_3"
  inner_product_param {
    num_output: 1
    weight_filler {
      type: "constant"
      value: 1
    }
    bias_filler {
      type: "constant"
      value: 0
    }
  }
}
layer {
  name: "conv_8_4"
  type: "Convolution"
  bottom: "data"
  top: "conv_8_4"
  convolution_param {
    num_output: 1
    pad: 0
    stride: 1
    weight_filler {
      type: "constant"
      value: 0
    }
    bias_filler {
      type: "constant"
      value: -1
    }
    kernel_h: 3
    kernel_w: 9
  }
}
layer {
  name: "relu_8_4"
  type: "ReLU"
  bottom: "conv_8_4"
  top: "conv_8_4"
}
layer {
  name: "fc_8_4"
  type: "InnerProduct"
  bottom: "conv_8_4"
  top: "fc_8_4"
  inner_product_param {
    num_output: 1
    weight_filler {
      type: "constant"
      value: 1
    }
    bias_filler {
      type: "constant"
      value: 0
    }
  }
}
layer {
  name: "conv_8_5"
  type: "Convolution"
  bottom: "data"
  top: "conv_8_5"
  convolution_param {
    num_output: 1
    pad: 0
    stride: 1
    weight_filler {
      type: "constant"
      value: 0
    }
    bias_filler {
      type: "constant"
      value: -1
    }
    kernel_h: 3
    kernel_w: 9
  }
}
layer {
  name: "relu_8_5"
  type: "ReLU"
  bottom: "conv_8_5"
  top: "conv_8_5"
}
layer {
  name: "fc_8_5"
  type: "InnerProduct"
  bottom: "conv_8_5"
  top: "fc_8_5"
  inner_product_param {
    num_output: 1
    weight_filler {
      type: "constant"
      value: 1
    }
    bias_filler {
      type: "constant"
      value: 0
    }
  }
}
layer {
  name: "conv_8_6"
  type: "Convolution"
  bottom: "data"
  top: "conv_8_6"
  convolution_param {
    num_output: 1
    pad: 0
    stride: 1
    weight_filler {
      type: "constant"
      value: 0
    }
    bias_filler {
      type: "constant"
      value: -1
    }
    kernel_h: 4
    kernel_w: 8
  }
}
layer {
  name: "relu_8_6"
  type: "ReLU"
  bottom: "conv_8_6"
  top: "conv_8_6"
}
layer {
  name: "fc_8_6"
  type: "InnerProduct"
  bottom: "conv_8_6"
  top: "fc_8_6"
  inner_product_param {
    num_output: 1
    weight_filler {
      type: "constant"
      value: 1
    }
    bias_filler {
      type: "constant"
      value: 0
    }
  }
}
layer {
  name: "conv_8_7"
  type: "Convolution"
  bottom: "data"
  top: "conv_8_7"
  convolution_param {
    num_output: 1
    pad: 0
    stride: 1
    weight_filler {
      type: "constant"
      value: 0
    }
    bias_filler {
      type: "constant"
      value: -1
    }
    kernel_h: 4
    kernel_w: 8
  }
}
layer {
  name: "relu_8_7"
  type: "ReLU"
  bottom: "conv_8_7"
  top: "conv_8_7"
}
layer {
  name: "fc_8_7"
  type: "InnerProduct"
  bottom: "conv_8_7"
  top: "fc_8_7"
  inner_product_param {
    num_output: 1
    weight_filler {
      type: "constant"
      value: 1
    }
    bias_filler {
      type: "constant"
      value: 0
    }
  }
}
layer {
  name: "conv_8_8"
  type: "Convolution"
  bottom: "data"
  top: "conv_8_8"
  convolution_param {
    num_output: 1
    pad: 0
    stride: 1
    weight_filler {
      type: "constant"
      value: 0
    }
    bias_filler {
      type: "constant"
      value: -1
    }
    kernel_h: 5
    kernel_w: 8
  }
}
layer {
  name: "relu_8_8"
  type: "ReLU"
  bottom: "conv_8_8"
  top: "conv_8_8"
}
layer {
  name: "fc_8_8"
  type: "InnerProduct"
  bottom: "conv_8_8"
  top: "fc_8_8"
  inner_product_param {
    num_output: 1
    weight_filler {
      type: "constant"
      value: 1
    }
    bias_filler {
      type: "constant"
      value: 0
    }
  }
}
layer {
  name: "conv_8_9"
  type: "Convolution"
  bottom: "data"
  top: "conv_8_9"
  convolution_param {
    num_output: 1
    pad: 0
    stride: 1
    weight_filler {
      type: "constant"
      value: 0
    }
    bias_filler {
      type: "constant"
      value: -1
    }
    kernel_h: 5
    kernel_w: 8
  }
}
layer {
  name: "relu_8_9"
  type: "ReLU"
  bottom: "conv_8_9"
  top: "conv_8_9"
}
layer {
  name: "fc_8_9"
  type: "InnerProduct"
  bottom: "conv_8_9"
  top: "fc_8_9"
  inner_product_param {
    num_output: 1
    weight_filler {
      type: "constant"
      value: 1
    }
    bias_filler {
      type: "constant"
      value: 0
    }
  }
}
layer {
  name: "conv_8_10"
  type: "Convolution"
  bottom: "data"
  top: "conv_8_10"
  convolution_param {
    num_output: 1
    pad: 0
    stride: 1
    weight_filler {
      type: "constant"
      value: 0
    }
    bias_filler {
      type: "constant"
      value: -1
    }
    kernel_h: 6
    kernel_w: 7
  }
}
layer {
  name: "relu_8_10"
  type: "ReLU"
  bottom: "conv_8_10"
  top: "conv_8_10"
}
layer {
  name: "fc_8_10"
  type: "InnerProduct"
  bottom: "conv_8_10"
  top: "fc_8_10"
  inner_product_param {
    num_output: 1
    weight_filler {
      type: "constant"
      value: 1
    }
    bias_filler {
      type: "constant"
      value: 0
    }
  }
}
layer {
  name: "conv_8_11"
  type: "Convolution"
  bottom: "data"
  top: "conv_8_11"
  convolution_param {
    num_output: 1
    pad: 0
    stride: 1
    weight_filler {
      type: "constant"
      value: 0
    }
    bias_filler {
      type: "constant"
      value: -1
    }
    kernel_h: 6
    kernel_w: 7
  }
}
layer {
  name: "relu_8_11"
  type: "ReLU"
  bottom: "conv_8_11"
  top: "conv_8_11"
}
layer {
  name: "fc_8_11"
  type: "InnerProduct"
  bottom: "conv_8_11"
  top: "fc_8_11"
  inner_product_param {
    num_output: 1
    weight_filler {
      type: "constant"
      value: 1
    }
    bias_filler {
      type: "constant"
      value: 0
    }
  }
}
layer {
  name: "conv_8_12"
  type: "Convolution"
  bottom: "data"
  top: "conv_8_12"
  convolution_param {
    num_output: 1
    pad: 0
    stride: 1
    weight_filler {
      type: "constant"
      value: 0
    }
    bias_filler {
      type: "constant"
      value: -1
    }
    kernel_h: 7
    kernel_w: 6
  }
}
layer {
  name: "relu_8_12"
  type: "ReLU"
  bottom: "conv_8_12"
  top: "conv_8_12"
}
layer {
  name: "fc_8_12"
  type: "InnerProduct"
  bottom: "conv_8_12"
  top: "fc_8_12"
  inner_product_param {
    num_output: 1
    weight_filler {
      type: "constant"
      value: 1
    }
    bias_filler {
      type: "constant"
      value: 0
    }
  }
}
layer {
  name: "conv_8_13"
  type: "Convolution"
  bottom: "data"
  top: "conv_8_13"
  convolution_param {
    num_output: 1
    pad: 0
    stride: 1
    weight_filler {
      type: "constant"
      value: 0
    }
    bias_filler {
      type: "constant"
      value: -1
    }
    kernel_h: 7
    kernel_w: 6
  }
}
layer {
  name: "relu_8_13"
  type: "ReLU"
  bottom: "conv_8_13"
  top: "conv_8_13"
}
layer {
  name: "fc_8_13"
  type: "InnerProduct"
  bottom: "conv_8_13"
  top: "fc_8_13"
  inner_product_param {
    num_output: 1
    weight_filler {
      type: "constant"
      value: 1
    }
    bias_filler {
      type: "constant"
      value: 0
    }
  }
}
layer {
  name: "conv_8_14"
  type: "Convolution"
  bottom: "data"
  top: "conv_8_14"
  convolution_param {
    num_output: 1
    pad: 0
    stride: 1
    weight_filler {
      type: "constant"
      value: 0
    }
    bias_filler {
      type: "constant"
      value: -1
    }
    kernel_h: 7
    kernel_w: 7
  }
}
layer {
  name: "relu_8_14"
  type: "ReLU"
  bottom: "conv_8_14"
  top: "conv_8_14"
}
layer {
  name: "fc_8_14"
  type: "InnerProduct"
  bottom: "conv_8_14"
  top: "fc_8_14"
  inner_product_param {
    num_output: 1
    weight_filler {
      type: "constant"
      value: 1
    }
    bias_filler {
      type: "constant"
      value: 0
    }
  }
}
layer {
  name: "conv_8_15"
  type: "Convolution"
  bottom: "data"
  top: "conv_8_15"
  convolution_param {
    num_output: 1
    pad: 0
    stride: 1
    weight_filler {
      type: "constant"
      value: 0
    }
    bias_filler {
      type: "constant"
      value: -1
    }
    kernel_h: 7
    kernel_w: 7
  }
}
layer {
  name: "relu_8_15"
  type: "ReLU"
  bottom: "conv_8_15"
  top: "conv_8_15"
}
layer {
  name: "fc_8_15"
  type: "InnerProduct"
  bottom: "conv_8_15"
  top: "fc_8_15"
  inner_product_param {
    num_output: 1
    weight_filler {
      type: "constant"
      value: 1
    }
    bias_filler {
      type: "constant"
      value: 0
    }
  }
}
layer {
  name: "conv_8_16"
  type: "Convolution"
  bottom: "data"
  top: "conv_8_16"
  convolution_param {
    num_output: 1
    pad: 0
    stride: 1
    weight_filler {
      type: "constant"
      value: 0
    }
    bias_filler {
      type: "constant"
      value: -1
    }
    kernel_h: 8
    kernel_w: 4
  }
}
layer {
  name: "relu_8_16"
  type: "ReLU"
  bottom: "conv_8_16"
  top: "conv_8_16"
}
layer {
  name: "fc_8_16"
  type: "InnerProduct"
  bottom: "conv_8_16"
  top: "fc_8_16"
  inner_product_param {
    num_output: 1
    weight_filler {
      type: "constant"
      value: 1
    }
    bias_filler {
      type: "constant"
      value: 0
    }
  }
}
layer {
  name: "conv_8_17"
  type: "Convolution"
  bottom: "data"
  top: "conv_8_17"
  convolution_param {
    num_output: 1
    pad: 0
    stride: 1
    weight_filler {
      type: "constant"
      value: 0
    }
    bias_filler {
      type: "constant"
      value: -1
    }
    kernel_h: 8
    kernel_w: 4
  }
}
layer {
  name: "relu_8_17"
  type: "ReLU"
  bottom: "conv_8_17"
  top: "conv_8_17"
}
layer {
  name: "fc_8_17"
  type: "InnerProduct"
  bottom: "conv_8_17"
  top: "fc_8_17"
  inner_product_param {
    num_output: 1
    weight_filler {
      type: "constant"
      value: 1
    }
    bias_filler {
      type: "constant"
      value: 0
    }
  }
}
layer {
  name: "conv_8_18"
  type: "Convolution"
  bottom: "data"
  top: "conv_8_18"
  convolution_param {
    num_output: 1
    pad: 0
    stride: 1
    weight_filler {
      type: "constant"
      value: 0
    }
    bias_filler {
      type: "constant"
      value: -1
    }
    kernel_h: 8
    kernel_w: 5
  }
}
layer {
  name: "relu_8_18"
  type: "ReLU"
  bottom: "conv_8_18"
  top: "conv_8_18"
}
layer {
  name: "fc_8_18"
  type: "InnerProduct"
  bottom: "conv_8_18"
  top: "fc_8_18"
  inner_product_param {
    num_output: 1
    weight_filler {
      type: "constant"
      value: 1
    }
    bias_filler {
      type: "constant"
      value: 0
    }
  }
}
layer {
  name: "conv_8_19"
  type: "Convolution"
  bottom: "data"
  top: "conv_8_19"
  convolution_param {
    num_output: 1
    pad: 0
    stride: 1
    weight_filler {
      type: "constant"
      value: 0
    }
    bias_filler {
      type: "constant"
      value: -1
    }
    kernel_h: 8
    kernel_w: 5
  }
}
layer {
  name: "relu_8_19"
  type: "ReLU"
  bottom: "conv_8_19"
  top: "conv_8_19"
}
layer {
  name: "fc_8_19"
  type: "InnerProduct"
  bottom: "conv_8_19"
  top: "fc_8_19"
  inner_product_param {
    num_output: 1
    weight_filler {
      type: "constant"
      value: 1
    }
    bias_filler {
      type: "constant"
      value: 0
    }
  }
}
layer {
  name: "conv_8_20"
  type: "Convolution"
  bottom: "data"
  top: "conv_8_20"
  convolution_param {
    num_output: 1
    pad: 0
    stride: 1
    weight_filler {
      type: "constant"
      value: 0
    }
    bias_filler {
      type: "constant"
      value: -1
    }
    kernel_h: 9
    kernel_w: 1
  }
}
layer {
  name: "relu_8_20"
  type: "ReLU"
  bottom: "conv_8_20"
  top: "conv_8_20"
}
layer {
  name: "fc_8_20"
  type: "InnerProduct"
  bottom: "conv_8_20"
  top: "fc_8_20"
  inner_product_param {
    num_output: 1
    weight_filler {
      type: "constant"
      value: 1
    }
    bias_filler {
      type: "constant"
      value: 0
    }
  }
}
layer {
  name: "conv_8_21"
  type: "Convolution"
  bottom: "data"
  top: "conv_8_21"
  convolution_param {
    num_output: 1
    pad: 0
    stride: 1
    weight_filler {
      type: "constant"
      value: 0
    }
    bias_filler {
      type: "constant"
      value: -1
    }
    kernel_h: 9
    kernel_w: 2
  }
}
layer {
  name: "relu_8_21"
  type: "ReLU"
  bottom: "conv_8_21"
  top: "conv_8_21"
}
layer {
  name: "fc_8_21"
  type: "InnerProduct"
  bottom: "conv_8_21"
  top: "fc_8_21"
  inner_product_param {
    num_output: 1
    weight_filler {
      type: "constant"
      value: 1
    }
    bias_filler {
      type: "constant"
      value: 0
    }
  }
}
layer {
  name: "conv_8_22"
  type: "Convolution"
  bottom: "data"
  top: "conv_8_22"
  convolution_param {
    num_output: 1
    pad: 0
    stride: 1
    weight_filler {
      type: "constant"
      value: 0
    }
    bias_filler {
      type: "constant"
      value: -1
    }
    kernel_h: 9
    kernel_w: 2
  }
}
layer {
  name: "relu_8_22"
  type: "ReLU"
  bottom: "conv_8_22"
  top: "conv_8_22"
}
layer {
  name: "fc_8_22"
  type: "InnerProduct"
  bottom: "conv_8_22"
  top: "fc_8_22"
  inner_product_param {
    num_output: 1
    weight_filler {
      type: "constant"
      value: 1
    }
    bias_filler {
      type: "constant"
      value: 0
    }
  }
}
layer {
  name: "conv_8_23"
  type: "Convolution"
  bottom: "data"
  top: "conv_8_23"
  convolution_param {
    num_output: 1
    pad: 0
    stride: 1
    weight_filler {
      type: "constant"
      value: 0
    }
    bias_filler {
      type: "constant"
      value: -1
    }
    kernel_h: 9
    kernel_w: 3
  }
}
layer {
  name: "relu_8_23"
  type: "ReLU"
  bottom: "conv_8_23"
  top: "conv_8_23"
}
layer {
  name: "fc_8_23"
  type: "InnerProduct"
  bottom: "conv_8_23"
  top: "fc_8_23"
  inner_product_param {
    num_output: 1
    weight_filler {
      type: "constant"
      value: 1
    }
    bias_filler {
      type: "constant"
      value: 0
    }
  }
}
layer {
  name: "conv_8_24"
  type: "Convolution"
  bottom: "data"
  top: "conv_8_24"
  convolution_param {
    num_output: 1
    pad: 0
    stride: 1
    weight_filler {
      type: "constant"
      value: 0
    }
    bias_filler {
      type: "constant"
      value: -1
    }
    kernel_h: 9
    kernel_w: 3
  }
}
layer {
  name: "relu_8_24"
  type: "ReLU"
  bottom: "conv_8_24"
  top: "conv_8_24"
}
layer {
  name: "fc_8_24"
  type: "InnerProduct"
  bottom: "conv_8_24"
  top: "fc_8_24"
  inner_product_param {
    num_output: 1
    weight_filler {
      type: "constant"
      value: 1
    }
    bias_filler {
      type: "constant"
      value: 0
    }
  }
}
layer {
  name: "concat_8"
  type: "Concat"
  bottom: "fc_8_1"
  bottom: "fc_8_2"
  bottom: "fc_8_3"
  bottom: "fc_8_4"
  bottom: "fc_8_5"
  bottom: "fc_8_6"
  bottom: "fc_8_7"
  bottom: "fc_8_8"
  bottom: "fc_8_9"
  bottom: "fc_8_10"
  bottom: "fc_8_11"
  bottom: "fc_8_12"
  bottom: "fc_8_13"
  bottom: "fc_8_14"
  bottom: "fc_8_15"
  bottom: "fc_8_16"
  bottom: "fc_8_17"
  bottom: "fc_8_18"
  bottom: "fc_8_19"
  bottom: "fc_8_20"
  bottom: "fc_8_21"
  bottom: "fc_8_22"
  bottom: "fc_8_23"
  bottom: "fc_8_24"
  top: "concat_8"
}
layer {
  name: "sum_8"
  type: "InnerProduct"
  bottom: "concat_8"
  top: "sum_8"
  inner_product_param {
    num_output: 1
    weight_filler {
      type: "constant"
      value: 1
    }
    bias_filler {
      type: "constant"
      value: 0
    }
  }
}
layer {
  name: "conv_9_1"
  type: "Convolution"
  bottom: "data"
  top: "conv_9_1"
  convolution_param {
    num_output: 1
    pad: 0
    stride: 1
    weight_filler {
      type: "constant"
      value: 0
    }
    bias_filler {
      type: "constant"
      value: -1
    }
    kernel_h: 1
    kernel_w: 10
  }
}
layer {
  name: "relu_9_1"
  type: "ReLU"
  bottom: "conv_9_1"
  top: "conv_9_1"
}
layer {
  name: "fc_9_1"
  type: "InnerProduct"
  bottom: "conv_9_1"
  top: "fc_9_1"
  inner_product_param {
    num_output: 1
    weight_filler {
      type: "constant"
      value: 1
    }
    bias_filler {
      type: "constant"
      value: 0
    }
  }
}
layer {
  name: "conv_9_2"
  type: "Convolution"
  bottom: "data"
  top: "conv_9_2"
  convolution_param {
    num_output: 1
    pad: 0
    stride: 1
    weight_filler {
      type: "constant"
      value: 0
    }
    bias_filler {
      type: "constant"
      value: -1
    }
    kernel_h: 2
    kernel_w: 10
  }
}
layer {
  name: "relu_9_2"
  type: "ReLU"
  bottom: "conv_9_2"
  top: "conv_9_2"
}
layer {
  name: "fc_9_2"
  type: "InnerProduct"
  bottom: "conv_9_2"
  top: "fc_9_2"
  inner_product_param {
    num_output: 1
    weight_filler {
      type: "constant"
      value: 1
    }
    bias_filler {
      type: "constant"
      value: 0
    }
  }
}
layer {
  name: "conv_9_3"
  type: "Convolution"
  bottom: "data"
  top: "conv_9_3"
  convolution_param {
    num_output: 1
    pad: 0
    stride: 1
    weight_filler {
      type: "constant"
      value: 0
    }
    bias_filler {
      type: "constant"
      value: -1
    }
    kernel_h: 2
    kernel_w: 10
  }
}
layer {
  name: "relu_9_3"
  type: "ReLU"
  bottom: "conv_9_3"
  top: "conv_9_3"
}
layer {
  name: "fc_9_3"
  type: "InnerProduct"
  bottom: "conv_9_3"
  top: "fc_9_3"
  inner_product_param {
    num_output: 1
    weight_filler {
      type: "constant"
      value: 1
    }
    bias_filler {
      type: "constant"
      value: 0
    }
  }
}
layer {
  name: "conv_9_4"
  type: "Convolution"
  bottom: "data"
  top: "conv_9_4"
  convolution_param {
    num_output: 1
    pad: 0
    stride: 1
    weight_filler {
      type: "constant"
      value: 0
    }
    bias_filler {
      type: "constant"
      value: -1
    }
    kernel_h: 3
    kernel_w: 10
  }
}
layer {
  name: "relu_9_4"
  type: "ReLU"
  bottom: "conv_9_4"
  top: "conv_9_4"
}
layer {
  name: "fc_9_4"
  type: "InnerProduct"
  bottom: "conv_9_4"
  top: "fc_9_4"
  inner_product_param {
    num_output: 1
    weight_filler {
      type: "constant"
      value: 1
    }
    bias_filler {
      type: "constant"
      value: 0
    }
  }
}
layer {
  name: "conv_9_5"
  type: "Convolution"
  bottom: "data"
  top: "conv_9_5"
  convolution_param {
    num_output: 1
    pad: 0
    stride: 1
    weight_filler {
      type: "constant"
      value: 0
    }
    bias_filler {
      type: "constant"
      value: -1
    }
    kernel_h: 3
    kernel_w: 10
  }
}
layer {
  name: "relu_9_5"
  type: "ReLU"
  bottom: "conv_9_5"
  top: "conv_9_5"
}
layer {
  name: "fc_9_5"
  type: "InnerProduct"
  bottom: "conv_9_5"
  top: "fc_9_5"
  inner_product_param {
    num_output: 1
    weight_filler {
      type: "constant"
      value: 1
    }
    bias_filler {
      type: "constant"
      value: 0
    }
  }
}
layer {
  name: "conv_9_6"
  type: "Convolution"
  bottom: "data"
  top: "conv_9_6"
  convolution_param {
    num_output: 1
    pad: 0
    stride: 1
    weight_filler {
      type: "constant"
      value: 0
    }
    bias_filler {
      type: "constant"
      value: -1
    }
    kernel_h: 4
    kernel_w: 9
  }
}
layer {
  name: "relu_9_6"
  type: "ReLU"
  bottom: "conv_9_6"
  top: "conv_9_6"
}
layer {
  name: "fc_9_6"
  type: "InnerProduct"
  bottom: "conv_9_6"
  top: "fc_9_6"
  inner_product_param {
    num_output: 1
    weight_filler {
      type: "constant"
      value: 1
    }
    bias_filler {
      type: "constant"
      value: 0
    }
  }
}
layer {
  name: "conv_9_7"
  type: "Convolution"
  bottom: "data"
  top: "conv_9_7"
  convolution_param {
    num_output: 1
    pad: 0
    stride: 1
    weight_filler {
      type: "constant"
      value: 0
    }
    bias_filler {
      type: "constant"
      value: -1
    }
    kernel_h: 4
    kernel_w: 9
  }
}
layer {
  name: "relu_9_7"
  type: "ReLU"
  bottom: "conv_9_7"
  top: "conv_9_7"
}
layer {
  name: "fc_9_7"
  type: "InnerProduct"
  bottom: "conv_9_7"
  top: "fc_9_7"
  inner_product_param {
    num_output: 1
    weight_filler {
      type: "constant"
      value: 1
    }
    bias_filler {
      type: "constant"
      value: 0
    }
  }
}
layer {
  name: "conv_9_8"
  type: "Convolution"
  bottom: "data"
  top: "conv_9_8"
  convolution_param {
    num_output: 1
    pad: 0
    stride: 1
    weight_filler {
      type: "constant"
      value: 0
    }
    bias_filler {
      type: "constant"
      value: -1
    }
    kernel_h: 4
    kernel_w: 10
  }
}
layer {
  name: "relu_9_8"
  type: "ReLU"
  bottom: "conv_9_8"
  top: "conv_9_8"
}
layer {
  name: "fc_9_8"
  type: "InnerProduct"
  bottom: "conv_9_8"
  top: "fc_9_8"
  inner_product_param {
    num_output: 1
    weight_filler {
      type: "constant"
      value: 1
    }
    bias_filler {
      type: "constant"
      value: 0
    }
  }
}
layer {
  name: "conv_9_9"
  type: "Convolution"
  bottom: "data"
  top: "conv_9_9"
  convolution_param {
    num_output: 1
    pad: 0
    stride: 1
    weight_filler {
      type: "constant"
      value: 0
    }
    bias_filler {
      type: "constant"
      value: -1
    }
    kernel_h: 4
    kernel_w: 10
  }
}
layer {
  name: "relu_9_9"
  type: "ReLU"
  bottom: "conv_9_9"
  top: "conv_9_9"
}
layer {
  name: "fc_9_9"
  type: "InnerProduct"
  bottom: "conv_9_9"
  top: "fc_9_9"
  inner_product_param {
    num_output: 1
    weight_filler {
      type: "constant"
      value: 1
    }
    bias_filler {
      type: "constant"
      value: 0
    }
  }
}
layer {
  name: "conv_9_10"
  type: "Convolution"
  bottom: "data"
  top: "conv_9_10"
  convolution_param {
    num_output: 1
    pad: 0
    stride: 1
    weight_filler {
      type: "constant"
      value: 0
    }
    bias_filler {
      type: "constant"
      value: -1
    }
    kernel_h: 5
    kernel_w: 9
  }
}
layer {
  name: "relu_9_10"
  type: "ReLU"
  bottom: "conv_9_10"
  top: "conv_9_10"
}
layer {
  name: "fc_9_10"
  type: "InnerProduct"
  bottom: "conv_9_10"
  top: "fc_9_10"
  inner_product_param {
    num_output: 1
    weight_filler {
      type: "constant"
      value: 1
    }
    bias_filler {
      type: "constant"
      value: 0
    }
  }
}
layer {
  name: "conv_9_11"
  type: "Convolution"
  bottom: "data"
  top: "conv_9_11"
  convolution_param {
    num_output: 1
    pad: 0
    stride: 1
    weight_filler {
      type: "constant"
      value: 0
    }
    bias_filler {
      type: "constant"
      value: -1
    }
    kernel_h: 5
    kernel_w: 9
  }
}
layer {
  name: "relu_9_11"
  type: "ReLU"
  bottom: "conv_9_11"
  top: "conv_9_11"
}
layer {
  name: "fc_9_11"
  type: "InnerProduct"
  bottom: "conv_9_11"
  top: "fc_9_11"
  inner_product_param {
    num_output: 1
    weight_filler {
      type: "constant"
      value: 1
    }
    bias_filler {
      type: "constant"
      value: 0
    }
  }
}
layer {
  name: "conv_9_12"
  type: "Convolution"
  bottom: "data"
  top: "conv_9_12"
  convolution_param {
    num_output: 1
    pad: 0
    stride: 1
    weight_filler {
      type: "constant"
      value: 0
    }
    bias_filler {
      type: "constant"
      value: -1
    }
    kernel_h: 6
    kernel_w: 8
  }
}
layer {
  name: "relu_9_12"
  type: "ReLU"
  bottom: "conv_9_12"
  top: "conv_9_12"
}
layer {
  name: "fc_9_12"
  type: "InnerProduct"
  bottom: "conv_9_12"
  top: "fc_9_12"
  inner_product_param {
    num_output: 1
    weight_filler {
      type: "constant"
      value: 1
    }
    bias_filler {
      type: "constant"
      value: 0
    }
  }
}
layer {
  name: "conv_9_13"
  type: "Convolution"
  bottom: "data"
  top: "conv_9_13"
  convolution_param {
    num_output: 1
    pad: 0
    stride: 1
    weight_filler {
      type: "constant"
      value: 0
    }
    bias_filler {
      type: "constant"
      value: -1
    }
    kernel_h: 6
    kernel_w: 8
  }
}
layer {
  name: "relu_9_13"
  type: "ReLU"
  bottom: "conv_9_13"
  top: "conv_9_13"
}
layer {
  name: "fc_9_13"
  type: "InnerProduct"
  bottom: "conv_9_13"
  top: "fc_9_13"
  inner_product_param {
    num_output: 1
    weight_filler {
      type: "constant"
      value: 1
    }
    bias_filler {
      type: "constant"
      value: 0
    }
  }
}
layer {
  name: "conv_9_14"
  type: "Convolution"
  bottom: "data"
  top: "conv_9_14"
  convolution_param {
    num_output: 1
    pad: 0
    stride: 1
    weight_filler {
      type: "constant"
      value: 0
    }
    bias_filler {
      type: "constant"
      value: -1
    }
    kernel_h: 6
    kernel_w: 9
  }
}
layer {
  name: "relu_9_14"
  type: "ReLU"
  bottom: "conv_9_14"
  top: "conv_9_14"
}
layer {
  name: "fc_9_14"
  type: "InnerProduct"
  bottom: "conv_9_14"
  top: "fc_9_14"
  inner_product_param {
    num_output: 1
    weight_filler {
      type: "constant"
      value: 1
    }
    bias_filler {
      type: "constant"
      value: 0
    }
  }
}
layer {
  name: "conv_9_15"
  type: "Convolution"
  bottom: "data"
  top: "conv_9_15"
  convolution_param {
    num_output: 1
    pad: 0
    stride: 1
    weight_filler {
      type: "constant"
      value: 0
    }
    bias_filler {
      type: "constant"
      value: -1
    }
    kernel_h: 6
    kernel_w: 9
  }
}
layer {
  name: "relu_9_15"
  type: "ReLU"
  bottom: "conv_9_15"
  top: "conv_9_15"
}
layer {
  name: "fc_9_15"
  type: "InnerProduct"
  bottom: "conv_9_15"
  top: "fc_9_15"
  inner_product_param {
    num_output: 1
    weight_filler {
      type: "constant"
      value: 1
    }
    bias_filler {
      type: "constant"
      value: 0
    }
  }
}
layer {
  name: "conv_9_16"
  type: "Convolution"
  bottom: "data"
  top: "conv_9_16"
  convolution_param {
    num_output: 1
    pad: 0
    stride: 1
    weight_filler {
      type: "constant"
      value: 0
    }
    bias_filler {
      type: "constant"
      value: -1
    }
    kernel_h: 7
    kernel_w: 8
  }
}
layer {
  name: "relu_9_16"
  type: "ReLU"
  bottom: "conv_9_16"
  top: "conv_9_16"
}
layer {
  name: "fc_9_16"
  type: "InnerProduct"
  bottom: "conv_9_16"
  top: "fc_9_16"
  inner_product_param {
    num_output: 1
    weight_filler {
      type: "constant"
      value: 1
    }
    bias_filler {
      type: "constant"
      value: 0
    }
  }
}
layer {
  name: "conv_9_17"
  type: "Convolution"
  bottom: "data"
  top: "conv_9_17"
  convolution_param {
    num_output: 1
    pad: 0
    stride: 1
    weight_filler {
      type: "constant"
      value: 0
    }
    bias_filler {
      type: "constant"
      value: -1
    }
    kernel_h: 7
    kernel_w: 8
  }
}
layer {
  name: "relu_9_17"
  type: "ReLU"
  bottom: "conv_9_17"
  top: "conv_9_17"
}
layer {
  name: "fc_9_17"
  type: "InnerProduct"
  bottom: "conv_9_17"
  top: "fc_9_17"
  inner_product_param {
    num_output: 1
    weight_filler {
      type: "constant"
      value: 1
    }
    bias_filler {
      type: "constant"
      value: 0
    }
  }
}
layer {
  name: "conv_9_18"
  type: "Convolution"
  bottom: "data"
  top: "conv_9_18"
  convolution_param {
    num_output: 1
    pad: 0
    stride: 1
    weight_filler {
      type: "constant"
      value: 0
    }
    bias_filler {
      type: "constant"
      value: -1
    }
    kernel_h: 8
    kernel_w: 6
  }
}
layer {
  name: "relu_9_18"
  type: "ReLU"
  bottom: "conv_9_18"
  top: "conv_9_18"
}
layer {
  name: "fc_9_18"
  type: "InnerProduct"
  bottom: "conv_9_18"
  top: "fc_9_18"
  inner_product_param {
    num_output: 1
    weight_filler {
      type: "constant"
      value: 1
    }
    bias_filler {
      type: "constant"
      value: 0
    }
  }
}
layer {
  name: "conv_9_19"
  type: "Convolution"
  bottom: "data"
  top: "conv_9_19"
  convolution_param {
    num_output: 1
    pad: 0
    stride: 1
    weight_filler {
      type: "constant"
      value: 0
    }
    bias_filler {
      type: "constant"
      value: -1
    }
    kernel_h: 8
    kernel_w: 6
  }
}
layer {
  name: "relu_9_19"
  type: "ReLU"
  bottom: "conv_9_19"
  top: "conv_9_19"
}
layer {
  name: "fc_9_19"
  type: "InnerProduct"
  bottom: "conv_9_19"
  top: "fc_9_19"
  inner_product_param {
    num_output: 1
    weight_filler {
      type: "constant"
      value: 1
    }
    bias_filler {
      type: "constant"
      value: 0
    }
  }
}
layer {
  name: "conv_9_20"
  type: "Convolution"
  bottom: "data"
  top: "conv_9_20"
  convolution_param {
    num_output: 1
    pad: 0
    stride: 1
    weight_filler {
      type: "constant"
      value: 0
    }
    bias_filler {
      type: "constant"
      value: -1
    }
    kernel_h: 8
    kernel_w: 7
  }
}
layer {
  name: "relu_9_20"
  type: "ReLU"
  bottom: "conv_9_20"
  top: "conv_9_20"
}
layer {
  name: "fc_9_20"
  type: "InnerProduct"
  bottom: "conv_9_20"
  top: "fc_9_20"
  inner_product_param {
    num_output: 1
    weight_filler {
      type: "constant"
      value: 1
    }
    bias_filler {
      type: "constant"
      value: 0
    }
  }
}
layer {
  name: "conv_9_21"
  type: "Convolution"
  bottom: "data"
  top: "conv_9_21"
  convolution_param {
    num_output: 1
    pad: 0
    stride: 1
    weight_filler {
      type: "constant"
      value: 0
    }
    bias_filler {
      type: "constant"
      value: -1
    }
    kernel_h: 8
    kernel_w: 7
  }
}
layer {
  name: "relu_9_21"
  type: "ReLU"
  bottom: "conv_9_21"
  top: "conv_9_21"
}
layer {
  name: "fc_9_21"
  type: "InnerProduct"
  bottom: "conv_9_21"
  top: "fc_9_21"
  inner_product_param {
    num_output: 1
    weight_filler {
      type: "constant"
      value: 1
    }
    bias_filler {
      type: "constant"
      value: 0
    }
  }
}
layer {
  name: "conv_9_22"
  type: "Convolution"
  bottom: "data"
  top: "conv_9_22"
  convolution_param {
    num_output: 1
    pad: 0
    stride: 1
    weight_filler {
      type: "constant"
      value: 0
    }
    bias_filler {
      type: "constant"
      value: -1
    }
    kernel_h: 9
    kernel_w: 4
  }
}
layer {
  name: "relu_9_22"
  type: "ReLU"
  bottom: "conv_9_22"
  top: "conv_9_22"
}
layer {
  name: "fc_9_22"
  type: "InnerProduct"
  bottom: "conv_9_22"
  top: "fc_9_22"
  inner_product_param {
    num_output: 1
    weight_filler {
      type: "constant"
      value: 1
    }
    bias_filler {
      type: "constant"
      value: 0
    }
  }
}
layer {
  name: "conv_9_23"
  type: "Convolution"
  bottom: "data"
  top: "conv_9_23"
  convolution_param {
    num_output: 1
    pad: 0
    stride: 1
    weight_filler {
      type: "constant"
      value: 0
    }
    bias_filler {
      type: "constant"
      value: -1
    }
    kernel_h: 9
    kernel_w: 4
  }
}
layer {
  name: "relu_9_23"
  type: "ReLU"
  bottom: "conv_9_23"
  top: "conv_9_23"
}
layer {
  name: "fc_9_23"
  type: "InnerProduct"
  bottom: "conv_9_23"
  top: "fc_9_23"
  inner_product_param {
    num_output: 1
    weight_filler {
      type: "constant"
      value: 1
    }
    bias_filler {
      type: "constant"
      value: 0
    }
  }
}
layer {
  name: "conv_9_24"
  type: "Convolution"
  bottom: "data"
  top: "conv_9_24"
  convolution_param {
    num_output: 1
    pad: 0
    stride: 1
    weight_filler {
      type: "constant"
      value: 0
    }
    bias_filler {
      type: "constant"
      value: -1
    }
    kernel_h: 9
    kernel_w: 5
  }
}
layer {
  name: "relu_9_24"
  type: "ReLU"
  bottom: "conv_9_24"
  top: "conv_9_24"
}
layer {
  name: "fc_9_24"
  type: "InnerProduct"
  bottom: "conv_9_24"
  top: "fc_9_24"
  inner_product_param {
    num_output: 1
    weight_filler {
      type: "constant"
      value: 1
    }
    bias_filler {
      type: "constant"
      value: 0
    }
  }
}
layer {
  name: "conv_9_25"
  type: "Convolution"
  bottom: "data"
  top: "conv_9_25"
  convolution_param {
    num_output: 1
    pad: 0
    stride: 1
    weight_filler {
      type: "constant"
      value: 0
    }
    bias_filler {
      type: "constant"
      value: -1
    }
    kernel_h: 9
    kernel_w: 5
  }
}
layer {
  name: "relu_9_25"
  type: "ReLU"
  bottom: "conv_9_25"
  top: "conv_9_25"
}
layer {
  name: "fc_9_25"
  type: "InnerProduct"
  bottom: "conv_9_25"
  top: "fc_9_25"
  inner_product_param {
    num_output: 1
    weight_filler {
      type: "constant"
      value: 1
    }
    bias_filler {
      type: "constant"
      value: 0
    }
  }
}
layer {
  name: "conv_9_26"
  type: "Convolution"
  bottom: "data"
  top: "conv_9_26"
  convolution_param {
    num_output: 1
    pad: 0
    stride: 1
    weight_filler {
      type: "constant"
      value: 0
    }
    bias_filler {
      type: "constant"
      value: -1
    }
    kernel_h: 9
    kernel_w: 6
  }
}
layer {
  name: "relu_9_26"
  type: "ReLU"
  bottom: "conv_9_26"
  top: "conv_9_26"
}
layer {
  name: "fc_9_26"
  type: "InnerProduct"
  bottom: "conv_9_26"
  top: "fc_9_26"
  inner_product_param {
    num_output: 1
    weight_filler {
      type: "constant"
      value: 1
    }
    bias_filler {
      type: "constant"
      value: 0
    }
  }
}
layer {
  name: "conv_9_27"
  type: "Convolution"
  bottom: "data"
  top: "conv_9_27"
  convolution_param {
    num_output: 1
    pad: 0
    stride: 1
    weight_filler {
      type: "constant"
      value: 0
    }
    bias_filler {
      type: "constant"
      value: -1
    }
    kernel_h: 9
    kernel_w: 6
  }
}
layer {
  name: "relu_9_27"
  type: "ReLU"
  bottom: "conv_9_27"
  top: "conv_9_27"
}
layer {
  name: "fc_9_27"
  type: "InnerProduct"
  bottom: "conv_9_27"
  top: "fc_9_27"
  inner_product_param {
    num_output: 1
    weight_filler {
      type: "constant"
      value: 1
    }
    bias_filler {
      type: "constant"
      value: 0
    }
  }
}
layer {
  name: "conv_9_28"
  type: "Convolution"
  bottom: "data"
  top: "conv_9_28"
  convolution_param {
    num_output: 1
    pad: 0
    stride: 1
    weight_filler {
      type: "constant"
      value: 0
    }
    bias_filler {
      type: "constant"
      value: -1
    }
    kernel_h: 10
    kernel_w: 1
  }
}
layer {
  name: "relu_9_28"
  type: "ReLU"
  bottom: "conv_9_28"
  top: "conv_9_28"
}
layer {
  name: "fc_9_28"
  type: "InnerProduct"
  bottom: "conv_9_28"
  top: "fc_9_28"
  inner_product_param {
    num_output: 1
    weight_filler {
      type: "constant"
      value: 1
    }
    bias_filler {
      type: "constant"
      value: 0
    }
  }
}
layer {
  name: "conv_9_29"
  type: "Convolution"
  bottom: "data"
  top: "conv_9_29"
  convolution_param {
    num_output: 1
    pad: 0
    stride: 1
    weight_filler {
      type: "constant"
      value: 0
    }
    bias_filler {
      type: "constant"
      value: -1
    }
    kernel_h: 10
    kernel_w: 2
  }
}
layer {
  name: "relu_9_29"
  type: "ReLU"
  bottom: "conv_9_29"
  top: "conv_9_29"
}
layer {
  name: "fc_9_29"
  type: "InnerProduct"
  bottom: "conv_9_29"
  top: "fc_9_29"
  inner_product_param {
    num_output: 1
    weight_filler {
      type: "constant"
      value: 1
    }
    bias_filler {
      type: "constant"
      value: 0
    }
  }
}
layer {
  name: "conv_9_30"
  type: "Convolution"
  bottom: "data"
  top: "conv_9_30"
  convolution_param {
    num_output: 1
    pad: 0
    stride: 1
    weight_filler {
      type: "constant"
      value: 0
    }
    bias_filler {
      type: "constant"
      value: -1
    }
    kernel_h: 10
    kernel_w: 2
  }
}
layer {
  name: "relu_9_30"
  type: "ReLU"
  bottom: "conv_9_30"
  top: "conv_9_30"
}
layer {
  name: "fc_9_30"
  type: "InnerProduct"
  bottom: "conv_9_30"
  top: "fc_9_30"
  inner_product_param {
    num_output: 1
    weight_filler {
      type: "constant"
      value: 1
    }
    bias_filler {
      type: "constant"
      value: 0
    }
  }
}
layer {
  name: "conv_9_31"
  type: "Convolution"
  bottom: "data"
  top: "conv_9_31"
  convolution_param {
    num_output: 1
    pad: 0
    stride: 1
    weight_filler {
      type: "constant"
      value: 0
    }
    bias_filler {
      type: "constant"
      value: -1
    }
    kernel_h: 10
    kernel_w: 3
  }
}
layer {
  name: "relu_9_31"
  type: "ReLU"
  bottom: "conv_9_31"
  top: "conv_9_31"
}
layer {
  name: "fc_9_31"
  type: "InnerProduct"
  bottom: "conv_9_31"
  top: "fc_9_31"
  inner_product_param {
    num_output: 1
    weight_filler {
      type: "constant"
      value: 1
    }
    bias_filler {
      type: "constant"
      value: 0
    }
  }
}
layer {
  name: "conv_9_32"
  type: "Convolution"
  bottom: "data"
  top: "conv_9_32"
  convolution_param {
    num_output: 1
    pad: 0
    stride: 1
    weight_filler {
      type: "constant"
      value: 0
    }
    bias_filler {
      type: "constant"
      value: -1
    }
    kernel_h: 10
    kernel_w: 3
  }
}
layer {
  name: "relu_9_32"
  type: "ReLU"
  bottom: "conv_9_32"
  top: "conv_9_32"
}
layer {
  name: "fc_9_32"
  type: "InnerProduct"
  bottom: "conv_9_32"
  top: "fc_9_32"
  inner_product_param {
    num_output: 1
    weight_filler {
      type: "constant"
      value: 1
    }
    bias_filler {
      type: "constant"
      value: 0
    }
  }
}
layer {
  name: "conv_9_33"
  type: "Convolution"
  bottom: "data"
  top: "conv_9_33"
  convolution_param {
    num_output: 1
    pad: 0
    stride: 1
    weight_filler {
      type: "constant"
      value: 0
    }
    bias_filler {
      type: "constant"
      value: -1
    }
    kernel_h: 10
    kernel_w: 4
  }
}
layer {
  name: "relu_9_33"
  type: "ReLU"
  bottom: "conv_9_33"
  top: "conv_9_33"
}
layer {
  name: "fc_9_33"
  type: "InnerProduct"
  bottom: "conv_9_33"
  top: "fc_9_33"
  inner_product_param {
    num_output: 1
    weight_filler {
      type: "constant"
      value: 1
    }
    bias_filler {
      type: "constant"
      value: 0
    }
  }
}
layer {
  name: "conv_9_34"
  type: "Convolution"
  bottom: "data"
  top: "conv_9_34"
  convolution_param {
    num_output: 1
    pad: 0
    stride: 1
    weight_filler {
      type: "constant"
      value: 0
    }
    bias_filler {
      type: "constant"
      value: -1
    }
    kernel_h: 10
    kernel_w: 4
  }
}
layer {
  name: "relu_9_34"
  type: "ReLU"
  bottom: "conv_9_34"
  top: "conv_9_34"
}
layer {
  name: "fc_9_34"
  type: "InnerProduct"
  bottom: "conv_9_34"
  top: "fc_9_34"
  inner_product_param {
    num_output: 1
    weight_filler {
      type: "constant"
      value: 1
    }
    bias_filler {
      type: "constant"
      value: 0
    }
  }
}
layer {
  name: "concat_9"
  type: "Concat"
  bottom: "fc_9_1"
  bottom: "fc_9_2"
  bottom: "fc_9_3"
  bottom: "fc_9_4"
  bottom: "fc_9_5"
  bottom: "fc_9_6"
  bottom: "fc_9_7"
  bottom: "fc_9_8"
  bottom: "fc_9_9"
  bottom: "fc_9_10"
  bottom: "fc_9_11"
  bottom: "fc_9_12"
  bottom: "fc_9_13"
  bottom: "fc_9_14"
  bottom: "fc_9_15"
  bottom: "fc_9_16"
  bottom: "fc_9_17"
  bottom: "fc_9_18"
  bottom: "fc_9_19"
  bottom: "fc_9_20"
  bottom: "fc_9_21"
  bottom: "fc_9_22"
  bottom: "fc_9_23"
  bottom: "fc_9_24"
  bottom: "fc_9_25"
  bottom: "fc_9_26"
  bottom: "fc_9_27"
  bottom: "fc_9_28"
  bottom: "fc_9_29"
  bottom: "fc_9_30"
  bottom: "fc_9_31"
  bottom: "fc_9_32"
  bottom: "fc_9_33"
  bottom: "fc_9_34"
  top: "concat_9"
}
layer {
  name: "sum_9"
  type: "InnerProduct"
  bottom: "concat_9"
  top: "sum_9"
  inner_product_param {
    num_output: 1
    weight_filler {
      type: "constant"
      value: 1
    }
    bias_filler {
      type: "constant"
      value: 0
    }
  }
}
layer {
  name: "conv_10_1"
  type: "Convolution"
  bottom: "data"
  top: "conv_10_1"
  convolution_param {
    num_output: 1
    pad: 0
    stride: 1
    weight_filler {
      type: "constant"
      value: 0
    }
    bias_filler {
      type: "constant"
      value: -1
    }
    kernel_h: 1
    kernel_w: 11
  }
}
layer {
  name: "relu_10_1"
  type: "ReLU"
  bottom: "conv_10_1"
  top: "conv_10_1"
}
layer {
  name: "fc_10_1"
  type: "InnerProduct"
  bottom: "conv_10_1"
  top: "fc_10_1"
  inner_product_param {
    num_output: 1
    weight_filler {
      type: "constant"
      value: 1
    }
    bias_filler {
      type: "constant"
      value: 0
    }
  }
}
layer {
  name: "conv_10_2"
  type: "Convolution"
  bottom: "data"
  top: "conv_10_2"
  convolution_param {
    num_output: 1
    pad: 0
    stride: 1
    weight_filler {
      type: "constant"
      value: 0
    }
    bias_filler {
      type: "constant"
      value: -1
    }
    kernel_h: 2
    kernel_w: 11
  }
}
layer {
  name: "relu_10_2"
  type: "ReLU"
  bottom: "conv_10_2"
  top: "conv_10_2"
}
layer {
  name: "fc_10_2"
  type: "InnerProduct"
  bottom: "conv_10_2"
  top: "fc_10_2"
  inner_product_param {
    num_output: 1
    weight_filler {
      type: "constant"
      value: 1
    }
    bias_filler {
      type: "constant"
      value: 0
    }
  }
}
layer {
  name: "conv_10_3"
  type: "Convolution"
  bottom: "data"
  top: "conv_10_3"
  convolution_param {
    num_output: 1
    pad: 0
    stride: 1
    weight_filler {
      type: "constant"
      value: 0
    }
    bias_filler {
      type: "constant"
      value: -1
    }
    kernel_h: 2
    kernel_w: 11
  }
}
layer {
  name: "relu_10_3"
  type: "ReLU"
  bottom: "conv_10_3"
  top: "conv_10_3"
}
layer {
  name: "fc_10_3"
  type: "InnerProduct"
  bottom: "conv_10_3"
  top: "fc_10_3"
  inner_product_param {
    num_output: 1
    weight_filler {
      type: "constant"
      value: 1
    }
    bias_filler {
      type: "constant"
      value: 0
    }
  }
}
layer {
  name: "conv_10_4"
  type: "Convolution"
  bottom: "data"
  top: "conv_10_4"
  convolution_param {
    num_output: 1
    pad: 0
    stride: 1
    weight_filler {
      type: "constant"
      value: 0
    }
    bias_filler {
      type: "constant"
      value: -1
    }
    kernel_h: 3
    kernel_w: 11
  }
}
layer {
  name: "relu_10_4"
  type: "ReLU"
  bottom: "conv_10_4"
  top: "conv_10_4"
}
layer {
  name: "fc_10_4"
  type: "InnerProduct"
  bottom: "conv_10_4"
  top: "fc_10_4"
  inner_product_param {
    num_output: 1
    weight_filler {
      type: "constant"
      value: 1
    }
    bias_filler {
      type: "constant"
      value: 0
    }
  }
}
layer {
  name: "conv_10_5"
  type: "Convolution"
  bottom: "data"
  top: "conv_10_5"
  convolution_param {
    num_output: 1
    pad: 0
    stride: 1
    weight_filler {
      type: "constant"
      value: 0
    }
    bias_filler {
      type: "constant"
      value: -1
    }
    kernel_h: 3
    kernel_w: 11
  }
}
layer {
  name: "relu_10_5"
  type: "ReLU"
  bottom: "conv_10_5"
  top: "conv_10_5"
}
layer {
  name: "fc_10_5"
  type: "InnerProduct"
  bottom: "conv_10_5"
  top: "fc_10_5"
  inner_product_param {
    num_output: 1
    weight_filler {
      type: "constant"
      value: 1
    }
    bias_filler {
      type: "constant"
      value: 0
    }
  }
}
layer {
  name: "conv_10_6"
  type: "Convolution"
  bottom: "data"
  top: "conv_10_6"
  convolution_param {
    num_output: 1
    pad: 0
    stride: 1
    weight_filler {
      type: "constant"
      value: 0
    }
    bias_filler {
      type: "constant"
      value: -1
    }
    kernel_h: 4
    kernel_w: 11
  }
}
layer {
  name: "relu_10_6"
  type: "ReLU"
  bottom: "conv_10_6"
  top: "conv_10_6"
}
layer {
  name: "fc_10_6"
  type: "InnerProduct"
  bottom: "conv_10_6"
  top: "fc_10_6"
  inner_product_param {
    num_output: 1
    weight_filler {
      type: "constant"
      value: 1
    }
    bias_filler {
      type: "constant"
      value: 0
    }
  }
}
layer {
  name: "conv_10_7"
  type: "Convolution"
  bottom: "data"
  top: "conv_10_7"
  convolution_param {
    num_output: 1
    pad: 0
    stride: 1
    weight_filler {
      type: "constant"
      value: 0
    }
    bias_filler {
      type: "constant"
      value: -1
    }
    kernel_h: 4
    kernel_w: 11
  }
}
layer {
  name: "relu_10_7"
  type: "ReLU"
  bottom: "conv_10_7"
  top: "conv_10_7"
}
layer {
  name: "fc_10_7"
  type: "InnerProduct"
  bottom: "conv_10_7"
  top: "fc_10_7"
  inner_product_param {
    num_output: 1
    weight_filler {
      type: "constant"
      value: 1
    }
    bias_filler {
      type: "constant"
      value: 0
    }
  }
}
layer {
  name: "conv_10_8"
  type: "Convolution"
  bottom: "data"
  top: "conv_10_8"
  convolution_param {
    num_output: 1
    pad: 0
    stride: 1
    weight_filler {
      type: "constant"
      value: 0
    }
    bias_filler {
      type: "constant"
      value: -1
    }
    kernel_h: 5
    kernel_w: 10
  }
}
layer {
  name: "relu_10_8"
  type: "ReLU"
  bottom: "conv_10_8"
  top: "conv_10_8"
}
layer {
  name: "fc_10_8"
  type: "InnerProduct"
  bottom: "conv_10_8"
  top: "fc_10_8"
  inner_product_param {
    num_output: 1
    weight_filler {
      type: "constant"
      value: 1
    }
    bias_filler {
      type: "constant"
      value: 0
    }
  }
}
layer {
  name: "conv_10_9"
  type: "Convolution"
  bottom: "data"
  top: "conv_10_9"
  convolution_param {
    num_output: 1
    pad: 0
    stride: 1
    weight_filler {
      type: "constant"
      value: 0
    }
    bias_filler {
      type: "constant"
      value: -1
    }
    kernel_h: 5
    kernel_w: 10
  }
}
layer {
  name: "relu_10_9"
  type: "ReLU"
  bottom: "conv_10_9"
  top: "conv_10_9"
}
layer {
  name: "fc_10_9"
  type: "InnerProduct"
  bottom: "conv_10_9"
  top: "fc_10_9"
  inner_product_param {
    num_output: 1
    weight_filler {
      type: "constant"
      value: 1
    }
    bias_filler {
      type: "constant"
      value: 0
    }
  }
}
layer {
  name: "conv_10_10"
  type: "Convolution"
  bottom: "data"
  top: "conv_10_10"
  convolution_param {
    num_output: 1
    pad: 0
    stride: 1
    weight_filler {
      type: "constant"
      value: 0
    }
    bias_filler {
      type: "constant"
      value: -1
    }
    kernel_h: 6
    kernel_w: 10
  }
}
layer {
  name: "relu_10_10"
  type: "ReLU"
  bottom: "conv_10_10"
  top: "conv_10_10"
}
layer {
  name: "fc_10_10"
  type: "InnerProduct"
  bottom: "conv_10_10"
  top: "fc_10_10"
  inner_product_param {
    num_output: 1
    weight_filler {
      type: "constant"
      value: 1
    }
    bias_filler {
      type: "constant"
      value: 0
    }
  }
}
layer {
  name: "conv_10_11"
  type: "Convolution"
  bottom: "data"
  top: "conv_10_11"
  convolution_param {
    num_output: 1
    pad: 0
    stride: 1
    weight_filler {
      type: "constant"
      value: 0
    }
    bias_filler {
      type: "constant"
      value: -1
    }
    kernel_h: 6
    kernel_w: 10
  }
}
layer {
  name: "relu_10_11"
  type: "ReLU"
  bottom: "conv_10_11"
  top: "conv_10_11"
}
layer {
  name: "fc_10_11"
  type: "InnerProduct"
  bottom: "conv_10_11"
  top: "fc_10_11"
  inner_product_param {
    num_output: 1
    weight_filler {
      type: "constant"
      value: 1
    }
    bias_filler {
      type: "constant"
      value: 0
    }
  }
}
layer {
  name: "conv_10_12"
  type: "Convolution"
  bottom: "data"
  top: "conv_10_12"
  convolution_param {
    num_output: 1
    pad: 0
    stride: 1
    weight_filler {
      type: "constant"
      value: 0
    }
    bias_filler {
      type: "constant"
      value: -1
    }
    kernel_h: 7
    kernel_w: 9
  }
}
layer {
  name: "relu_10_12"
  type: "ReLU"
  bottom: "conv_10_12"
  top: "conv_10_12"
}
layer {
  name: "fc_10_12"
  type: "InnerProduct"
  bottom: "conv_10_12"
  top: "fc_10_12"
  inner_product_param {
    num_output: 1
    weight_filler {
      type: "constant"
      value: 1
    }
    bias_filler {
      type: "constant"
      value: 0
    }
  }
}
layer {
  name: "conv_10_13"
  type: "Convolution"
  bottom: "data"
  top: "conv_10_13"
  convolution_param {
    num_output: 1
    pad: 0
    stride: 1
    weight_filler {
      type: "constant"
      value: 0
    }
    bias_filler {
      type: "constant"
      value: -1
    }
    kernel_h: 7
    kernel_w: 9
  }
}
layer {
  name: "relu_10_13"
  type: "ReLU"
  bottom: "conv_10_13"
  top: "conv_10_13"
}
layer {
  name: "fc_10_13"
  type: "InnerProduct"
  bottom: "conv_10_13"
  top: "fc_10_13"
  inner_product_param {
    num_output: 1
    weight_filler {
      type: "constant"
      value: 1
    }
    bias_filler {
      type: "constant"
      value: 0
    }
  }
}
layer {
  name: "conv_10_14"
  type: "Convolution"
  bottom: "data"
  top: "conv_10_14"
  convolution_param {
    num_output: 1
    pad: 0
    stride: 1
    weight_filler {
      type: "constant"
      value: 0
    }
    bias_filler {
      type: "constant"
      value: -1
    }
    kernel_h: 8
    kernel_w: 8
  }
}
layer {
  name: "relu_10_14"
  type: "ReLU"
  bottom: "conv_10_14"
  top: "conv_10_14"
}
layer {
  name: "fc_10_14"
  type: "InnerProduct"
  bottom: "conv_10_14"
  top: "fc_10_14"
  inner_product_param {
    num_output: 1
    weight_filler {
      type: "constant"
      value: 1
    }
    bias_filler {
      type: "constant"
      value: 0
    }
  }
}
layer {
  name: "conv_10_15"
  type: "Convolution"
  bottom: "data"
  top: "conv_10_15"
  convolution_param {
    num_output: 1
    pad: 0
    stride: 1
    weight_filler {
      type: "constant"
      value: 0
    }
    bias_filler {
      type: "constant"
      value: -1
    }
    kernel_h: 8
    kernel_w: 8
  }
}
layer {
  name: "relu_10_15"
  type: "ReLU"
  bottom: "conv_10_15"
  top: "conv_10_15"
}
layer {
  name: "fc_10_15"
  type: "InnerProduct"
  bottom: "conv_10_15"
  top: "fc_10_15"
  inner_product_param {
    num_output: 1
    weight_filler {
      type: "constant"
      value: 1
    }
    bias_filler {
      type: "constant"
      value: 0
    }
  }
}
layer {
  name: "conv_10_16"
  type: "Convolution"
  bottom: "data"
  top: "conv_10_16"
  convolution_param {
    num_output: 1
    pad: 0
    stride: 1
    weight_filler {
      type: "constant"
      value: 0
    }
    bias_filler {
      type: "constant"
      value: -1
    }
    kernel_h: 9
    kernel_w: 7
  }
}
layer {
  name: "relu_10_16"
  type: "ReLU"
  bottom: "conv_10_16"
  top: "conv_10_16"
}
layer {
  name: "fc_10_16"
  type: "InnerProduct"
  bottom: "conv_10_16"
  top: "fc_10_16"
  inner_product_param {
    num_output: 1
    weight_filler {
      type: "constant"
      value: 1
    }
    bias_filler {
      type: "constant"
      value: 0
    }
  }
}
layer {
  name: "conv_10_17"
  type: "Convolution"
  bottom: "data"
  top: "conv_10_17"
  convolution_param {
    num_output: 1
    pad: 0
    stride: 1
    weight_filler {
      type: "constant"
      value: 0
    }
    bias_filler {
      type: "constant"
      value: -1
    }
    kernel_h: 9
    kernel_w: 7
  }
}
layer {
  name: "relu_10_17"
  type: "ReLU"
  bottom: "conv_10_17"
  top: "conv_10_17"
}
layer {
  name: "fc_10_17"
  type: "InnerProduct"
  bottom: "conv_10_17"
  top: "fc_10_17"
  inner_product_param {
    num_output: 1
    weight_filler {
      type: "constant"
      value: 1
    }
    bias_filler {
      type: "constant"
      value: 0
    }
  }
}
layer {
  name: "conv_10_18"
  type: "Convolution"
  bottom: "data"
  top: "conv_10_18"
  convolution_param {
    num_output: 1
    pad: 0
    stride: 1
    weight_filler {
      type: "constant"
      value: 0
    }
    bias_filler {
      type: "constant"
      value: -1
    }
    kernel_h: 10
    kernel_w: 5
  }
}
layer {
  name: "relu_10_18"
  type: "ReLU"
  bottom: "conv_10_18"
  top: "conv_10_18"
}
layer {
  name: "fc_10_18"
  type: "InnerProduct"
  bottom: "conv_10_18"
  top: "fc_10_18"
  inner_product_param {
    num_output: 1
    weight_filler {
      type: "constant"
      value: 1
    }
    bias_filler {
      type: "constant"
      value: 0
    }
  }
}
layer {
  name: "conv_10_19"
  type: "Convolution"
  bottom: "data"
  top: "conv_10_19"
  convolution_param {
    num_output: 1
    pad: 0
    stride: 1
    weight_filler {
      type: "constant"
      value: 0
    }
    bias_filler {
      type: "constant"
      value: -1
    }
    kernel_h: 10
    kernel_w: 5
  }
}
layer {
  name: "relu_10_19"
  type: "ReLU"
  bottom: "conv_10_19"
  top: "conv_10_19"
}
layer {
  name: "fc_10_19"
  type: "InnerProduct"
  bottom: "conv_10_19"
  top: "fc_10_19"
  inner_product_param {
    num_output: 1
    weight_filler {
      type: "constant"
      value: 1
    }
    bias_filler {
      type: "constant"
      value: 0
    }
  }
}
layer {
  name: "conv_10_20"
  type: "Convolution"
  bottom: "data"
  top: "conv_10_20"
  convolution_param {
    num_output: 1
    pad: 0
    stride: 1
    weight_filler {
      type: "constant"
      value: 0
    }
    bias_filler {
      type: "constant"
      value: -1
    }
    kernel_h: 10
    kernel_w: 6
  }
}
layer {
  name: "relu_10_20"
  type: "ReLU"
  bottom: "conv_10_20"
  top: "conv_10_20"
}
layer {
  name: "fc_10_20"
  type: "InnerProduct"
  bottom: "conv_10_20"
  top: "fc_10_20"
  inner_product_param {
    num_output: 1
    weight_filler {
      type: "constant"
      value: 1
    }
    bias_filler {
      type: "constant"
      value: 0
    }
  }
}
layer {
  name: "conv_10_21"
  type: "Convolution"
  bottom: "data"
  top: "conv_10_21"
  convolution_param {
    num_output: 1
    pad: 0
    stride: 1
    weight_filler {
      type: "constant"
      value: 0
    }
    bias_filler {
      type: "constant"
      value: -1
    }
    kernel_h: 10
    kernel_w: 6
  }
}
layer {
  name: "relu_10_21"
  type: "ReLU"
  bottom: "conv_10_21"
  top: "conv_10_21"
}
layer {
  name: "fc_10_21"
  type: "InnerProduct"
  bottom: "conv_10_21"
  top: "fc_10_21"
  inner_product_param {
    num_output: 1
    weight_filler {
      type: "constant"
      value: 1
    }
    bias_filler {
      type: "constant"
      value: 0
    }
  }
}
layer {
  name: "conv_10_22"
  type: "Convolution"
  bottom: "data"
  top: "conv_10_22"
  convolution_param {
    num_output: 1
    pad: 0
    stride: 1
    weight_filler {
      type: "constant"
      value: 0
    }
    bias_filler {
      type: "constant"
      value: -1
    }
    kernel_h: 11
    kernel_w: 1
  }
}
layer {
  name: "relu_10_22"
  type: "ReLU"
  bottom: "conv_10_22"
  top: "conv_10_22"
}
layer {
  name: "fc_10_22"
  type: "InnerProduct"
  bottom: "conv_10_22"
  top: "fc_10_22"
  inner_product_param {
    num_output: 1
    weight_filler {
      type: "constant"
      value: 1
    }
    bias_filler {
      type: "constant"
      value: 0
    }
  }
}
layer {
  name: "conv_10_23"
  type: "Convolution"
  bottom: "data"
  top: "conv_10_23"
  convolution_param {
    num_output: 1
    pad: 0
    stride: 1
    weight_filler {
      type: "constant"
      value: 0
    }
    bias_filler {
      type: "constant"
      value: -1
    }
    kernel_h: 11
    kernel_w: 2
  }
}
layer {
  name: "relu_10_23"
  type: "ReLU"
  bottom: "conv_10_23"
  top: "conv_10_23"
}
layer {
  name: "fc_10_23"
  type: "InnerProduct"
  bottom: "conv_10_23"
  top: "fc_10_23"
  inner_product_param {
    num_output: 1
    weight_filler {
      type: "constant"
      value: 1
    }
    bias_filler {
      type: "constant"
      value: 0
    }
  }
}
layer {
  name: "conv_10_24"
  type: "Convolution"
  bottom: "data"
  top: "conv_10_24"
  convolution_param {
    num_output: 1
    pad: 0
    stride: 1
    weight_filler {
      type: "constant"
      value: 0
    }
    bias_filler {
      type: "constant"
      value: -1
    }
    kernel_h: 11
    kernel_w: 2
  }
}
layer {
  name: "relu_10_24"
  type: "ReLU"
  bottom: "conv_10_24"
  top: "conv_10_24"
}
layer {
  name: "fc_10_24"
  type: "InnerProduct"
  bottom: "conv_10_24"
  top: "fc_10_24"
  inner_product_param {
    num_output: 1
    weight_filler {
      type: "constant"
      value: 1
    }
    bias_filler {
      type: "constant"
      value: 0
    }
  }
}
layer {
  name: "conv_10_25"
  type: "Convolution"
  bottom: "data"
  top: "conv_10_25"
  convolution_param {
    num_output: 1
    pad: 0
    stride: 1
    weight_filler {
      type: "constant"
      value: 0
    }
    bias_filler {
      type: "constant"
      value: -1
    }
    kernel_h: 11
    kernel_w: 3
  }
}
layer {
  name: "relu_10_25"
  type: "ReLU"
  bottom: "conv_10_25"
  top: "conv_10_25"
}
layer {
  name: "fc_10_25"
  type: "InnerProduct"
  bottom: "conv_10_25"
  top: "fc_10_25"
  inner_product_param {
    num_output: 1
    weight_filler {
      type: "constant"
      value: 1
    }
    bias_filler {
      type: "constant"
      value: 0
    }
  }
}
layer {
  name: "conv_10_26"
  type: "Convolution"
  bottom: "data"
  top: "conv_10_26"
  convolution_param {
    num_output: 1
    pad: 0
    stride: 1
    weight_filler {
      type: "constant"
      value: 0
    }
    bias_filler {
      type: "constant"
      value: -1
    }
    kernel_h: 11
    kernel_w: 3
  }
}
layer {
  name: "relu_10_26"
  type: "ReLU"
  bottom: "conv_10_26"
  top: "conv_10_26"
}
layer {
  name: "fc_10_26"
  type: "InnerProduct"
  bottom: "conv_10_26"
  top: "fc_10_26"
  inner_product_param {
    num_output: 1
    weight_filler {
      type: "constant"
      value: 1
    }
    bias_filler {
      type: "constant"
      value: 0
    }
  }
}
layer {
  name: "conv_10_27"
  type: "Convolution"
  bottom: "data"
  top: "conv_10_27"
  convolution_param {
    num_output: 1
    pad: 0
    stride: 1
    weight_filler {
      type: "constant"
      value: 0
    }
    bias_filler {
      type: "constant"
      value: -1
    }
    kernel_h: 11
    kernel_w: 4
  }
}
layer {
  name: "relu_10_27"
  type: "ReLU"
  bottom: "conv_10_27"
  top: "conv_10_27"
}
layer {
  name: "fc_10_27"
  type: "InnerProduct"
  bottom: "conv_10_27"
  top: "fc_10_27"
  inner_product_param {
    num_output: 1
    weight_filler {
      type: "constant"
      value: 1
    }
    bias_filler {
      type: "constant"
      value: 0
    }
  }
}
layer {
  name: "conv_10_28"
  type: "Convolution"
  bottom: "data"
  top: "conv_10_28"
  convolution_param {
    num_output: 1
    pad: 0
    stride: 1
    weight_filler {
      type: "constant"
      value: 0
    }
    bias_filler {
      type: "constant"
      value: -1
    }
    kernel_h: 11
    kernel_w: 4
  }
}
layer {
  name: "relu_10_28"
  type: "ReLU"
  bottom: "conv_10_28"
  top: "conv_10_28"
}
layer {
  name: "fc_10_28"
  type: "InnerProduct"
  bottom: "conv_10_28"
  top: "fc_10_28"
  inner_product_param {
    num_output: 1
    weight_filler {
      type: "constant"
      value: 1
    }
    bias_filler {
      type: "constant"
      value: 0
    }
  }
}
layer {
  name: "concat_10"
  type: "Concat"
  bottom: "fc_10_1"
  bottom: "fc_10_2"
  bottom: "fc_10_3"
  bottom: "fc_10_4"
  bottom: "fc_10_5"
  bottom: "fc_10_6"
  bottom: "fc_10_7"
  bottom: "fc_10_8"
  bottom: "fc_10_9"
  bottom: "fc_10_10"
  bottom: "fc_10_11"
  bottom: "fc_10_12"
  bottom: "fc_10_13"
  bottom: "fc_10_14"
  bottom: "fc_10_15"
  bottom: "fc_10_16"
  bottom: "fc_10_17"
  bottom: "fc_10_18"
  bottom: "fc_10_19"
  bottom: "fc_10_20"
  bottom: "fc_10_21"
  bottom: "fc_10_22"
  bottom: "fc_10_23"
  bottom: "fc_10_24"
  bottom: "fc_10_25"
  bottom: "fc_10_26"
  bottom: "fc_10_27"
  bottom: "fc_10_28"
  top: "concat_10"
}
layer {
  name: "sum_10"
  type: "InnerProduct"
  bottom: "concat_10"
  top: "sum_10"
  inner_product_param {
    num_output: 1
    weight_filler {
      type: "constant"
      value: 1
    }
    bias_filler {
      type: "constant"
      value: 0
    }
  }
}
layer {
  name: "conv_11_1"
  type: "Convolution"
  bottom: "data"
  top: "conv_11_1"
  convolution_param {
    num_output: 1
    pad: 0
    stride: 1
    weight_filler {
      type: "constant"
      value: 0
    }
    bias_filler {
      type: "constant"
      value: -1
    }
    kernel_h: 1
    kernel_w: 12
  }
}
layer {
  name: "relu_11_1"
  type: "ReLU"
  bottom: "conv_11_1"
  top: "conv_11_1"
}
layer {
  name: "fc_11_1"
  type: "InnerProduct"
  bottom: "conv_11_1"
  top: "fc_11_1"
  inner_product_param {
    num_output: 1
    weight_filler {
      type: "constant"
      value: 1
    }
    bias_filler {
      type: "constant"
      value: 0
    }
  }
}
layer {
  name: "conv_11_2"
  type: "Convolution"
  bottom: "data"
  top: "conv_11_2"
  convolution_param {
    num_output: 1
    pad: 0
    stride: 1
    weight_filler {
      type: "constant"
      value: 0
    }
    bias_filler {
      type: "constant"
      value: -1
    }
    kernel_h: 2
    kernel_w: 12
  }
}
layer {
  name: "relu_11_2"
  type: "ReLU"
  bottom: "conv_11_2"
  top: "conv_11_2"
}
layer {
  name: "fc_11_2"
  type: "InnerProduct"
  bottom: "conv_11_2"
  top: "fc_11_2"
  inner_product_param {
    num_output: 1
    weight_filler {
      type: "constant"
      value: 1
    }
    bias_filler {
      type: "constant"
      value: 0
    }
  }
}
layer {
  name: "conv_11_3"
  type: "Convolution"
  bottom: "data"
  top: "conv_11_3"
  convolution_param {
    num_output: 1
    pad: 0
    stride: 1
    weight_filler {
      type: "constant"
      value: 0
    }
    bias_filler {
      type: "constant"
      value: -1
    }
    kernel_h: 2
    kernel_w: 12
  }
}
layer {
  name: "relu_11_3"
  type: "ReLU"
  bottom: "conv_11_3"
  top: "conv_11_3"
}
layer {
  name: "fc_11_3"
  type: "InnerProduct"
  bottom: "conv_11_3"
  top: "fc_11_3"
  inner_product_param {
    num_output: 1
    weight_filler {
      type: "constant"
      value: 1
    }
    bias_filler {
      type: "constant"
      value: 0
    }
  }
}
layer {
  name: "conv_11_4"
  type: "Convolution"
  bottom: "data"
  top: "conv_11_4"
  convolution_param {
    num_output: 1
    pad: 0
    stride: 1
    weight_filler {
      type: "constant"
      value: 0
    }
    bias_filler {
      type: "constant"
      value: -1
    }
    kernel_h: 3
    kernel_w: 12
  }
}
layer {
  name: "relu_11_4"
  type: "ReLU"
  bottom: "conv_11_4"
  top: "conv_11_4"
}
layer {
  name: "fc_11_4"
  type: "InnerProduct"
  bottom: "conv_11_4"
  top: "fc_11_4"
  inner_product_param {
    num_output: 1
    weight_filler {
      type: "constant"
      value: 1
    }
    bias_filler {
      type: "constant"
      value: 0
    }
  }
}
layer {
  name: "conv_11_5"
  type: "Convolution"
  bottom: "data"
  top: "conv_11_5"
  convolution_param {
    num_output: 1
    pad: 0
    stride: 1
    weight_filler {
      type: "constant"
      value: 0
    }
    bias_filler {
      type: "constant"
      value: -1
    }
    kernel_h: 3
    kernel_w: 12
  }
}
layer {
  name: "relu_11_5"
  type: "ReLU"
  bottom: "conv_11_5"
  top: "conv_11_5"
}
layer {
  name: "fc_11_5"
  type: "InnerProduct"
  bottom: "conv_11_5"
  top: "fc_11_5"
  inner_product_param {
    num_output: 1
    weight_filler {
      type: "constant"
      value: 1
    }
    bias_filler {
      type: "constant"
      value: 0
    }
  }
}
layer {
  name: "conv_11_6"
  type: "Convolution"
  bottom: "data"
  top: "conv_11_6"
  convolution_param {
    num_output: 1
    pad: 0
    stride: 1
    weight_filler {
      type: "constant"
      value: 0
    }
    bias_filler {
      type: "constant"
      value: -1
    }
    kernel_h: 4
    kernel_w: 12
  }
}
layer {
  name: "relu_11_6"
  type: "ReLU"
  bottom: "conv_11_6"
  top: "conv_11_6"
}
layer {
  name: "fc_11_6"
  type: "InnerProduct"
  bottom: "conv_11_6"
  top: "fc_11_6"
  inner_product_param {
    num_output: 1
    weight_filler {
      type: "constant"
      value: 1
    }
    bias_filler {
      type: "constant"
      value: 0
    }
  }
}
layer {
  name: "conv_11_7"
  type: "Convolution"
  bottom: "data"
  top: "conv_11_7"
  convolution_param {
    num_output: 1
    pad: 0
    stride: 1
    weight_filler {
      type: "constant"
      value: 0
    }
    bias_filler {
      type: "constant"
      value: -1
    }
    kernel_h: 4
    kernel_w: 12
  }
}
layer {
  name: "relu_11_7"
  type: "ReLU"
  bottom: "conv_11_7"
  top: "conv_11_7"
}
layer {
  name: "fc_11_7"
  type: "InnerProduct"
  bottom: "conv_11_7"
  top: "fc_11_7"
  inner_product_param {
    num_output: 1
    weight_filler {
      type: "constant"
      value: 1
    }
    bias_filler {
      type: "constant"
      value: 0
    }
  }
}
layer {
  name: "conv_11_8"
  type: "Convolution"
  bottom: "data"
  top: "conv_11_8"
  convolution_param {
    num_output: 1
    pad: 0
    stride: 1
    weight_filler {
      type: "constant"
      value: 0
    }
    bias_filler {
      type: "constant"
      value: -1
    }
    kernel_h: 5
    kernel_w: 11
  }
}
layer {
  name: "relu_11_8"
  type: "ReLU"
  bottom: "conv_11_8"
  top: "conv_11_8"
}
layer {
  name: "fc_11_8"
  type: "InnerProduct"
  bottom: "conv_11_8"
  top: "fc_11_8"
  inner_product_param {
    num_output: 1
    weight_filler {
      type: "constant"
      value: 1
    }
    bias_filler {
      type: "constant"
      value: 0
    }
  }
}
layer {
  name: "conv_11_9"
  type: "Convolution"
  bottom: "data"
  top: "conv_11_9"
  convolution_param {
    num_output: 1
    pad: 0
    stride: 1
    weight_filler {
      type: "constant"
      value: 0
    }
    bias_filler {
      type: "constant"
      value: -1
    }
    kernel_h: 5
    kernel_w: 11
  }
}
layer {
  name: "relu_11_9"
  type: "ReLU"
  bottom: "conv_11_9"
  top: "conv_11_9"
}
layer {
  name: "fc_11_9"
  type: "InnerProduct"
  bottom: "conv_11_9"
  top: "fc_11_9"
  inner_product_param {
    num_output: 1
    weight_filler {
      type: "constant"
      value: 1
    }
    bias_filler {
      type: "constant"
      value: 0
    }
  }
}
layer {
  name: "conv_11_10"
  type: "Convolution"
  bottom: "data"
  top: "conv_11_10"
  convolution_param {
    num_output: 1
    pad: 0
    stride: 1
    weight_filler {
      type: "constant"
      value: 0
    }
    bias_filler {
      type: "constant"
      value: -1
    }
    kernel_h: 6
    kernel_w: 11
  }
}
layer {
  name: "relu_11_10"
  type: "ReLU"
  bottom: "conv_11_10"
  top: "conv_11_10"
}
layer {
  name: "fc_11_10"
  type: "InnerProduct"
  bottom: "conv_11_10"
  top: "fc_11_10"
  inner_product_param {
    num_output: 1
    weight_filler {
      type: "constant"
      value: 1
    }
    bias_filler {
      type: "constant"
      value: 0
    }
  }
}
layer {
  name: "conv_11_11"
  type: "Convolution"
  bottom: "data"
  top: "conv_11_11"
  convolution_param {
    num_output: 1
    pad: 0
    stride: 1
    weight_filler {
      type: "constant"
      value: 0
    }
    bias_filler {
      type: "constant"
      value: -1
    }
    kernel_h: 6
    kernel_w: 11
  }
}
layer {
  name: "relu_11_11"
  type: "ReLU"
  bottom: "conv_11_11"
  top: "conv_11_11"
}
layer {
  name: "fc_11_11"
  type: "InnerProduct"
  bottom: "conv_11_11"
  top: "fc_11_11"
  inner_product_param {
    num_output: 1
    weight_filler {
      type: "constant"
      value: 1
    }
    bias_filler {
      type: "constant"
      value: 0
    }
  }
}
layer {
  name: "conv_11_12"
  type: "Convolution"
  bottom: "data"
  top: "conv_11_12"
  convolution_param {
    num_output: 1
    pad: 0
    stride: 1
    weight_filler {
      type: "constant"
      value: 0
    }
    bias_filler {
      type: "constant"
      value: -1
    }
    kernel_h: 7
    kernel_w: 10
  }
}
layer {
  name: "relu_11_12"
  type: "ReLU"
  bottom: "conv_11_12"
  top: "conv_11_12"
}
layer {
  name: "fc_11_12"
  type: "InnerProduct"
  bottom: "conv_11_12"
  top: "fc_11_12"
  inner_product_param {
    num_output: 1
    weight_filler {
      type: "constant"
      value: 1
    }
    bias_filler {
      type: "constant"
      value: 0
    }
  }
}
layer {
  name: "conv_11_13"
  type: "Convolution"
  bottom: "data"
  top: "conv_11_13"
  convolution_param {
    num_output: 1
    pad: 0
    stride: 1
    weight_filler {
      type: "constant"
      value: 0
    }
    bias_filler {
      type: "constant"
      value: -1
    }
    kernel_h: 7
    kernel_w: 10
  }
}
layer {
  name: "relu_11_13"
  type: "ReLU"
  bottom: "conv_11_13"
  top: "conv_11_13"
}
layer {
  name: "fc_11_13"
  type: "InnerProduct"
  bottom: "conv_11_13"
  top: "fc_11_13"
  inner_product_param {
    num_output: 1
    weight_filler {
      type: "constant"
      value: 1
    }
    bias_filler {
      type: "constant"
      value: 0
    }
  }
}
layer {
  name: "conv_11_14"
  type: "Convolution"
  bottom: "data"
  top: "conv_11_14"
  convolution_param {
    num_output: 1
    pad: 0
    stride: 1
    weight_filler {
      type: "constant"
      value: 0
    }
    bias_filler {
      type: "constant"
      value: -1
    }
    kernel_h: 8
    kernel_w: 9
  }
}
layer {
  name: "relu_11_14"
  type: "ReLU"
  bottom: "conv_11_14"
  top: "conv_11_14"
}
layer {
  name: "fc_11_14"
  type: "InnerProduct"
  bottom: "conv_11_14"
  top: "fc_11_14"
  inner_product_param {
    num_output: 1
    weight_filler {
      type: "constant"
      value: 1
    }
    bias_filler {
      type: "constant"
      value: 0
    }
  }
}
layer {
  name: "conv_11_15"
  type: "Convolution"
  bottom: "data"
  top: "conv_11_15"
  convolution_param {
    num_output: 1
    pad: 0
    stride: 1
    weight_filler {
      type: "constant"
      value: 0
    }
    bias_filler {
      type: "constant"
      value: -1
    }
    kernel_h: 8
    kernel_w: 9
  }
}
layer {
  name: "relu_11_15"
  type: "ReLU"
  bottom: "conv_11_15"
  top: "conv_11_15"
}
layer {
  name: "fc_11_15"
  type: "InnerProduct"
  bottom: "conv_11_15"
  top: "fc_11_15"
  inner_product_param {
    num_output: 1
    weight_filler {
      type: "constant"
      value: 1
    }
    bias_filler {
      type: "constant"
      value: 0
    }
  }
}
layer {
  name: "conv_11_16"
  type: "Convolution"
  bottom: "data"
  top: "conv_11_16"
  convolution_param {
    num_output: 1
    pad: 0
    stride: 1
    weight_filler {
      type: "constant"
      value: 0
    }
    bias_filler {
      type: "constant"
      value: -1
    }
    kernel_h: 8
    kernel_w: 10
  }
}
layer {
  name: "relu_11_16"
  type: "ReLU"
  bottom: "conv_11_16"
  top: "conv_11_16"
}
layer {
  name: "fc_11_16"
  type: "InnerProduct"
  bottom: "conv_11_16"
  top: "fc_11_16"
  inner_product_param {
    num_output: 1
    weight_filler {
      type: "constant"
      value: 1
    }
    bias_filler {
      type: "constant"
      value: 0
    }
  }
}
layer {
  name: "conv_11_17"
  type: "Convolution"
  bottom: "data"
  top: "conv_11_17"
  convolution_param {
    num_output: 1
    pad: 0
    stride: 1
    weight_filler {
      type: "constant"
      value: 0
    }
    bias_filler {
      type: "constant"
      value: -1
    }
    kernel_h: 8
    kernel_w: 10
  }
}
layer {
  name: "relu_11_17"
  type: "ReLU"
  bottom: "conv_11_17"
  top: "conv_11_17"
}
layer {
  name: "fc_11_17"
  type: "InnerProduct"
  bottom: "conv_11_17"
  top: "fc_11_17"
  inner_product_param {
    num_output: 1
    weight_filler {
      type: "constant"
      value: 1
    }
    bias_filler {
      type: "constant"
      value: 0
    }
  }
}
layer {
  name: "conv_11_18"
  type: "Convolution"
  bottom: "data"
  top: "conv_11_18"
  convolution_param {
    num_output: 1
    pad: 0
    stride: 1
    weight_filler {
      type: "constant"
      value: 0
    }
    bias_filler {
      type: "constant"
      value: -1
    }
    kernel_h: 9
    kernel_w: 8
  }
}
layer {
  name: "relu_11_18"
  type: "ReLU"
  bottom: "conv_11_18"
  top: "conv_11_18"
}
layer {
  name: "fc_11_18"
  type: "InnerProduct"
  bottom: "conv_11_18"
  top: "fc_11_18"
  inner_product_param {
    num_output: 1
    weight_filler {
      type: "constant"
      value: 1
    }
    bias_filler {
      type: "constant"
      value: 0
    }
  }
}
layer {
  name: "conv_11_19"
  type: "Convolution"
  bottom: "data"
  top: "conv_11_19"
  convolution_param {
    num_output: 1
    pad: 0
    stride: 1
    weight_filler {
      type: "constant"
      value: 0
    }
    bias_filler {
      type: "constant"
      value: -1
    }
    kernel_h: 9
    kernel_w: 8
  }
}
layer {
  name: "relu_11_19"
  type: "ReLU"
  bottom: "conv_11_19"
  top: "conv_11_19"
}
layer {
  name: "fc_11_19"
  type: "InnerProduct"
  bottom: "conv_11_19"
  top: "fc_11_19"
  inner_product_param {
    num_output: 1
    weight_filler {
      type: "constant"
      value: 1
    }
    bias_filler {
      type: "constant"
      value: 0
    }
  }
}
layer {
  name: "conv_11_20"
  type: "Convolution"
  bottom: "data"
  top: "conv_11_20"
  convolution_param {
    num_output: 1
    pad: 0
    stride: 1
    weight_filler {
      type: "constant"
      value: 0
    }
    bias_filler {
      type: "constant"
      value: -1
    }
    kernel_h: 9
    kernel_w: 9
  }
}
layer {
  name: "relu_11_20"
  type: "ReLU"
  bottom: "conv_11_20"
  top: "conv_11_20"
}
layer {
  name: "fc_11_20"
  type: "InnerProduct"
  bottom: "conv_11_20"
  top: "fc_11_20"
  inner_product_param {
    num_output: 1
    weight_filler {
      type: "constant"
      value: 1
    }
    bias_filler {
      type: "constant"
      value: 0
    }
  }
}
layer {
  name: "conv_11_21"
  type: "Convolution"
  bottom: "data"
  top: "conv_11_21"
  convolution_param {
    num_output: 1
    pad: 0
    stride: 1
    weight_filler {
      type: "constant"
      value: 0
    }
    bias_filler {
      type: "constant"
      value: -1
    }
    kernel_h: 9
    kernel_w: 9
  }
}
layer {
  name: "relu_11_21"
  type: "ReLU"
  bottom: "conv_11_21"
  top: "conv_11_21"
}
layer {
  name: "fc_11_21"
  type: "InnerProduct"
  bottom: "conv_11_21"
  top: "fc_11_21"
  inner_product_param {
    num_output: 1
    weight_filler {
      type: "constant"
      value: 1
    }
    bias_filler {
      type: "constant"
      value: 0
    }
  }
}
layer {
  name: "conv_11_22"
  type: "Convolution"
  bottom: "data"
  top: "conv_11_22"
  convolution_param {
    num_output: 1
    pad: 0
    stride: 1
    weight_filler {
      type: "constant"
      value: 0
    }
    bias_filler {
      type: "constant"
      value: -1
    }
    kernel_h: 10
    kernel_w: 7
  }
}
layer {
  name: "relu_11_22"
  type: "ReLU"
  bottom: "conv_11_22"
  top: "conv_11_22"
}
layer {
  name: "fc_11_22"
  type: "InnerProduct"
  bottom: "conv_11_22"
  top: "fc_11_22"
  inner_product_param {
    num_output: 1
    weight_filler {
      type: "constant"
      value: 1
    }
    bias_filler {
      type: "constant"
      value: 0
    }
  }
}
layer {
  name: "conv_11_23"
  type: "Convolution"
  bottom: "data"
  top: "conv_11_23"
  convolution_param {
    num_output: 1
    pad: 0
    stride: 1
    weight_filler {
      type: "constant"
      value: 0
    }
    bias_filler {
      type: "constant"
      value: -1
    }
    kernel_h: 10
    kernel_w: 7
  }
}
layer {
  name: "relu_11_23"
  type: "ReLU"
  bottom: "conv_11_23"
  top: "conv_11_23"
}
layer {
  name: "fc_11_23"
  type: "InnerProduct"
  bottom: "conv_11_23"
  top: "fc_11_23"
  inner_product_param {
    num_output: 1
    weight_filler {
      type: "constant"
      value: 1
    }
    bias_filler {
      type: "constant"
      value: 0
    }
  }
}
layer {
  name: "conv_11_24"
  type: "Convolution"
  bottom: "data"
  top: "conv_11_24"
  convolution_param {
    num_output: 1
    pad: 0
    stride: 1
    weight_filler {
      type: "constant"
      value: 0
    }
    bias_filler {
      type: "constant"
      value: -1
    }
    kernel_h: 10
    kernel_w: 8
  }
}
layer {
  name: "relu_11_24"
  type: "ReLU"
  bottom: "conv_11_24"
  top: "conv_11_24"
}
layer {
  name: "fc_11_24"
  type: "InnerProduct"
  bottom: "conv_11_24"
  top: "fc_11_24"
  inner_product_param {
    num_output: 1
    weight_filler {
      type: "constant"
      value: 1
    }
    bias_filler {
      type: "constant"
      value: 0
    }
  }
}
layer {
  name: "conv_11_25"
  type: "Convolution"
  bottom: "data"
  top: "conv_11_25"
  convolution_param {
    num_output: 1
    pad: 0
    stride: 1
    weight_filler {
      type: "constant"
      value: 0
    }
    bias_filler {
      type: "constant"
      value: -1
    }
    kernel_h: 10
    kernel_w: 8
  }
}
layer {
  name: "relu_11_25"
  type: "ReLU"
  bottom: "conv_11_25"
  top: "conv_11_25"
}
layer {
  name: "fc_11_25"
  type: "InnerProduct"
  bottom: "conv_11_25"
  top: "fc_11_25"
  inner_product_param {
    num_output: 1
    weight_filler {
      type: "constant"
      value: 1
    }
    bias_filler {
      type: "constant"
      value: 0
    }
  }
}
layer {
  name: "conv_11_26"
  type: "Convolution"
  bottom: "data"
  top: "conv_11_26"
  convolution_param {
    num_output: 1
    pad: 0
    stride: 1
    weight_filler {
      type: "constant"
      value: 0
    }
    bias_filler {
      type: "constant"
      value: -1
    }
    kernel_h: 11
    kernel_w: 5
  }
}
layer {
  name: "relu_11_26"
  type: "ReLU"
  bottom: "conv_11_26"
  top: "conv_11_26"
}
layer {
  name: "fc_11_26"
  type: "InnerProduct"
  bottom: "conv_11_26"
  top: "fc_11_26"
  inner_product_param {
    num_output: 1
    weight_filler {
      type: "constant"
      value: 1
    }
    bias_filler {
      type: "constant"
      value: 0
    }
  }
}
layer {
  name: "conv_11_27"
  type: "Convolution"
  bottom: "data"
  top: "conv_11_27"
  convolution_param {
    num_output: 1
    pad: 0
    stride: 1
    weight_filler {
      type: "constant"
      value: 0
    }
    bias_filler {
      type: "constant"
      value: -1
    }
    kernel_h: 11
    kernel_w: 5
  }
}
layer {
  name: "relu_11_27"
  type: "ReLU"
  bottom: "conv_11_27"
  top: "conv_11_27"
}
layer {
  name: "fc_11_27"
  type: "InnerProduct"
  bottom: "conv_11_27"
  top: "fc_11_27"
  inner_product_param {
    num_output: 1
    weight_filler {
      type: "constant"
      value: 1
    }
    bias_filler {
      type: "constant"
      value: 0
    }
  }
}
layer {
  name: "conv_11_28"
  type: "Convolution"
  bottom: "data"
  top: "conv_11_28"
  convolution_param {
    num_output: 1
    pad: 0
    stride: 1
    weight_filler {
      type: "constant"
      value: 0
    }
    bias_filler {
      type: "constant"
      value: -1
    }
    kernel_h: 11
    kernel_w: 6
  }
}
layer {
  name: "relu_11_28"
  type: "ReLU"
  bottom: "conv_11_28"
  top: "conv_11_28"
}
layer {
  name: "fc_11_28"
  type: "InnerProduct"
  bottom: "conv_11_28"
  top: "fc_11_28"
  inner_product_param {
    num_output: 1
    weight_filler {
      type: "constant"
      value: 1
    }
    bias_filler {
      type: "constant"
      value: 0
    }
  }
}
layer {
  name: "conv_11_29"
  type: "Convolution"
  bottom: "data"
  top: "conv_11_29"
  convolution_param {
    num_output: 1
    pad: 0
    stride: 1
    weight_filler {
      type: "constant"
      value: 0
    }
    bias_filler {
      type: "constant"
      value: -1
    }
    kernel_h: 11
    kernel_w: 6
  }
}
layer {
  name: "relu_11_29"
  type: "ReLU"
  bottom: "conv_11_29"
  top: "conv_11_29"
}
layer {
  name: "fc_11_29"
  type: "InnerProduct"
  bottom: "conv_11_29"
  top: "fc_11_29"
  inner_product_param {
    num_output: 1
    weight_filler {
      type: "constant"
      value: 1
    }
    bias_filler {
      type: "constant"
      value: 0
    }
  }
}
layer {
  name: "conv_11_30"
  type: "Convolution"
  bottom: "data"
  top: "conv_11_30"
  convolution_param {
    num_output: 1
    pad: 0
    stride: 1
    weight_filler {
      type: "constant"
      value: 0
    }
    bias_filler {
      type: "constant"
      value: -1
    }
    kernel_h: 12
    kernel_w: 1
  }
}
layer {
  name: "relu_11_30"
  type: "ReLU"
  bottom: "conv_11_30"
  top: "conv_11_30"
}
layer {
  name: "fc_11_30"
  type: "InnerProduct"
  bottom: "conv_11_30"
  top: "fc_11_30"
  inner_product_param {
    num_output: 1
    weight_filler {
      type: "constant"
      value: 1
    }
    bias_filler {
      type: "constant"
      value: 0
    }
  }
}
layer {
  name: "conv_11_31"
  type: "Convolution"
  bottom: "data"
  top: "conv_11_31"
  convolution_param {
    num_output: 1
    pad: 0
    stride: 1
    weight_filler {
      type: "constant"
      value: 0
    }
    bias_filler {
      type: "constant"
      value: -1
    }
    kernel_h: 12
    kernel_w: 2
  }
}
layer {
  name: "relu_11_31"
  type: "ReLU"
  bottom: "conv_11_31"
  top: "conv_11_31"
}
layer {
  name: "fc_11_31"
  type: "InnerProduct"
  bottom: "conv_11_31"
  top: "fc_11_31"
  inner_product_param {
    num_output: 1
    weight_filler {
      type: "constant"
      value: 1
    }
    bias_filler {
      type: "constant"
      value: 0
    }
  }
}
layer {
  name: "conv_11_32"
  type: "Convolution"
  bottom: "data"
  top: "conv_11_32"
  convolution_param {
    num_output: 1
    pad: 0
    stride: 1
    weight_filler {
      type: "constant"
      value: 0
    }
    bias_filler {
      type: "constant"
      value: -1
    }
    kernel_h: 12
    kernel_w: 2
  }
}
layer {
  name: "relu_11_32"
  type: "ReLU"
  bottom: "conv_11_32"
  top: "conv_11_32"
}
layer {
  name: "fc_11_32"
  type: "InnerProduct"
  bottom: "conv_11_32"
  top: "fc_11_32"
  inner_product_param {
    num_output: 1
    weight_filler {
      type: "constant"
      value: 1
    }
    bias_filler {
      type: "constant"
      value: 0
    }
  }
}
layer {
  name: "conv_11_33"
  type: "Convolution"
  bottom: "data"
  top: "conv_11_33"
  convolution_param {
    num_output: 1
    pad: 0
    stride: 1
    weight_filler {
      type: "constant"
      value: 0
    }
    bias_filler {
      type: "constant"
      value: -1
    }
    kernel_h: 12
    kernel_w: 3
  }
}
layer {
  name: "relu_11_33"
  type: "ReLU"
  bottom: "conv_11_33"
  top: "conv_11_33"
}
layer {
  name: "fc_11_33"
  type: "InnerProduct"
  bottom: "conv_11_33"
  top: "fc_11_33"
  inner_product_param {
    num_output: 1
    weight_filler {
      type: "constant"
      value: 1
    }
    bias_filler {
      type: "constant"
      value: 0
    }
  }
}
layer {
  name: "conv_11_34"
  type: "Convolution"
  bottom: "data"
  top: "conv_11_34"
  convolution_param {
    num_output: 1
    pad: 0
    stride: 1
    weight_filler {
      type: "constant"
      value: 0
    }
    bias_filler {
      type: "constant"
      value: -1
    }
    kernel_h: 12
    kernel_w: 3
  }
}
layer {
  name: "relu_11_34"
  type: "ReLU"
  bottom: "conv_11_34"
  top: "conv_11_34"
}
layer {
  name: "fc_11_34"
  type: "InnerProduct"
  bottom: "conv_11_34"
  top: "fc_11_34"
  inner_product_param {
    num_output: 1
    weight_filler {
      type: "constant"
      value: 1
    }
    bias_filler {
      type: "constant"
      value: 0
    }
  }
}
layer {
  name: "conv_11_35"
  type: "Convolution"
  bottom: "data"
  top: "conv_11_35"
  convolution_param {
    num_output: 1
    pad: 0
    stride: 1
    weight_filler {
      type: "constant"
      value: 0
    }
    bias_filler {
      type: "constant"
      value: -1
    }
    kernel_h: 12
    kernel_w: 4
  }
}
layer {
  name: "relu_11_35"
  type: "ReLU"
  bottom: "conv_11_35"
  top: "conv_11_35"
}
layer {
  name: "fc_11_35"
  type: "InnerProduct"
  bottom: "conv_11_35"
  top: "fc_11_35"
  inner_product_param {
    num_output: 1
    weight_filler {
      type: "constant"
      value: 1
    }
    bias_filler {
      type: "constant"
      value: 0
    }
  }
}
layer {
  name: "conv_11_36"
  type: "Convolution"
  bottom: "data"
  top: "conv_11_36"
  convolution_param {
    num_output: 1
    pad: 0
    stride: 1
    weight_filler {
      type: "constant"
      value: 0
    }
    bias_filler {
      type: "constant"
      value: -1
    }
    kernel_h: 12
    kernel_w: 4
  }
}
layer {
  name: "relu_11_36"
  type: "ReLU"
  bottom: "conv_11_36"
  top: "conv_11_36"
}
layer {
  name: "fc_11_36"
  type: "InnerProduct"
  bottom: "conv_11_36"
  top: "fc_11_36"
  inner_product_param {
    num_output: 1
    weight_filler {
      type: "constant"
      value: 1
    }
    bias_filler {
      type: "constant"
      value: 0
    }
  }
}
layer {
  name: "concat_11"
  type: "Concat"
  bottom: "fc_11_1"
  bottom: "fc_11_2"
  bottom: "fc_11_3"
  bottom: "fc_11_4"
  bottom: "fc_11_5"
  bottom: "fc_11_6"
  bottom: "fc_11_7"
  bottom: "fc_11_8"
  bottom: "fc_11_9"
  bottom: "fc_11_10"
  bottom: "fc_11_11"
  bottom: "fc_11_12"
  bottom: "fc_11_13"
  bottom: "fc_11_14"
  bottom: "fc_11_15"
  bottom: "fc_11_16"
  bottom: "fc_11_17"
  bottom: "fc_11_18"
  bottom: "fc_11_19"
  bottom: "fc_11_20"
  bottom: "fc_11_21"
  bottom: "fc_11_22"
  bottom: "fc_11_23"
  bottom: "fc_11_24"
  bottom: "fc_11_25"
  bottom: "fc_11_26"
  bottom: "fc_11_27"
  bottom: "fc_11_28"
  bottom: "fc_11_29"
  bottom: "fc_11_30"
  bottom: "fc_11_31"
  bottom: "fc_11_32"
  bottom: "fc_11_33"
  bottom: "fc_11_34"
  bottom: "fc_11_35"
  bottom: "fc_11_36"
  top: "concat_11"
}
layer {
  name: "sum_11"
  type: "InnerProduct"
  bottom: "concat_11"
  top: "sum_11"
  inner_product_param {
    num_output: 1
    weight_filler {
      type: "constant"
      value: 1
    }
    bias_filler {
      type: "constant"
      value: 0
    }
  }
}
layer {
  name: "conv_12_1"
  type: "Convolution"
  bottom: "data"
  top: "conv_12_1"
  convolution_param {
    num_output: 1
    pad: 0
    stride: 1
    weight_filler {
      type: "constant"
      value: 0
    }
    bias_filler {
      type: "constant"
      value: -1
    }
    kernel_h: 1
    kernel_w: 13
  }
}
layer {
  name: "relu_12_1"
  type: "ReLU"
  bottom: "conv_12_1"
  top: "conv_12_1"
}
layer {
  name: "fc_12_1"
  type: "InnerProduct"
  bottom: "conv_12_1"
  top: "fc_12_1"
  inner_product_param {
    num_output: 1
    weight_filler {
      type: "constant"
      value: 1
    }
    bias_filler {
      type: "constant"
      value: 0
    }
  }
}
layer {
  name: "conv_12_2"
  type: "Convolution"
  bottom: "data"
  top: "conv_12_2"
  convolution_param {
    num_output: 1
    pad: 0
    stride: 1
    weight_filler {
      type: "constant"
      value: 0
    }
    bias_filler {
      type: "constant"
      value: -1
    }
    kernel_h: 2
    kernel_w: 13
  }
}
layer {
  name: "relu_12_2"
  type: "ReLU"
  bottom: "conv_12_2"
  top: "conv_12_2"
}
layer {
  name: "fc_12_2"
  type: "InnerProduct"
  bottom: "conv_12_2"
  top: "fc_12_2"
  inner_product_param {
    num_output: 1
    weight_filler {
      type: "constant"
      value: 1
    }
    bias_filler {
      type: "constant"
      value: 0
    }
  }
}
layer {
  name: "conv_12_3"
  type: "Convolution"
  bottom: "data"
  top: "conv_12_3"
  convolution_param {
    num_output: 1
    pad: 0
    stride: 1
    weight_filler {
      type: "constant"
      value: 0
    }
    bias_filler {
      type: "constant"
      value: -1
    }
    kernel_h: 2
    kernel_w: 13
  }
}
layer {
  name: "relu_12_3"
  type: "ReLU"
  bottom: "conv_12_3"
  top: "conv_12_3"
}
layer {
  name: "fc_12_3"
  type: "InnerProduct"
  bottom: "conv_12_3"
  top: "fc_12_3"
  inner_product_param {
    num_output: 1
…
  bottom: "conv_25_14"
  top: "fc_25_14"
  inner_product_param {
    num_output: 1
    weight_filler {
      type: "constant"
      value: 1
    }
    bias_filler {
      type: "constant"
      value: 0
    }
  }
}
layer {
  name: "conv_25_15"
  type: "Convolution"
  bottom: "data"
  top: "conv_25_15"
  convolution_param {
    num_output: 1
    pad: 0
    stride: 1
    weight_filler {
      type: "constant"
      value: 0
    }
    bias_filler {
      type: "constant"
      value: -1
    }
    kernel_h: 7
    kernel_w: 25
  }
}
layer {
  name: "relu_25_15"
  type: "ReLU"
  bottom: "conv_25_15"
  top: "conv_25_15"
}
layer {
  name: "fc_25_15"
  type: "InnerProduct"
  bottom: "conv_25_15"
  top: "fc_25_15"
  inner_product_param {
    num_output: 1
    weight_filler {
      type: "constant"
      value: 1
    }
    bias_filler {
      type: "constant"
      value: 0
    }
  }
}
layer {
  name: "conv_25_16"
  type: "Convolution"
  bottom: "data"
  top: "conv_25_16"
  convolution_param {
    num_output: 1
    pad: 0
    stride: 1
    weight_filler {
      type: "constant"
      value: 0
    }
    bias_filler {
      type: "constant"
      value: -1
    }
    kernel_h: 8
    kernel_w: 25
  }
}
layer {
  name: "relu_25_16"
  type: "ReLU"
  bottom: "conv_25_16"
  top: "conv_25_16"
}
layer {
  name: "fc_25_16"
  type: "InnerProduct"
  bottom: "conv_25_16"
  top: "fc_25_16"
  inner_product_param {
    num_output: 1
    weight_filler {
      type: "constant"
      value: 1
    }
    bias_filler {
      type: "constant"
      value: 0
    }
  }
}
layer {
  name: "conv_25_17"
  type: "Convolution"
  bottom: "data"
  top: "conv_25_17"
  convolution_param {
    num_output: 1
    pad: 0
    stride: 1
    weight_filler {
      type: "constant"
      value: 0
    }
    bias_filler {
      type: "constant"
      value: -1
    }
    kernel_h: 8
    kernel_w: 25
  }
}
layer {
  name: "relu_25_17"
  type: "ReLU"
  bottom: "conv_25_17"
  top: "conv_25_17"
}
layer {
  name: "fc_25_17"
  type: "InnerProduct"
  bottom: "conv_25_17"
  top: "fc_25_17"
  inner_product_param {
    num_output: 1
    weight_filler {
      type: "constant"
      value: 1
    }
    bias_filler {
      type: "constant"
      value: 0
    }
  }
}
layer {
  name: "conv_25_18"
  type: "Convolution"
  bottom: "data"
  top: "conv_25_18"
  convolution_param {
    num_output: 1
    pad: 0
    stride: 1
    weight_filler {
      type: "constant"
      value: 0
    }
    bias_filler {
      type: "constant"
      value: -1
    }
    kernel_h: 9
    kernel_w: 25
  }
}
layer {
  name: "relu_25_18"
  type: "ReLU"
  bottom: "conv_25_18"
  top: "conv_25_18"
}
layer {
  name: "fc_25_18"
  type: "InnerProduct"
  bottom: "conv_25_18"
  top: "fc_25_18"
  inner_product_param {
    num_output: 1
    weight_filler {
      type: "constant"
      value: 1
    }
    bias_filler {
      type: "constant"
      value: 0
    }
  }
}
layer {
  name: "conv_25_19"
  type: "Convolution"
  bottom: "data"
  top: "conv_25_19"
  convolution_param {
    num_output: 1
    pad: 0
    stride: 1
    weight_filler {
      type: "constant"
      value: 0
    }
    bias_filler {
      type: "constant"
      value: -1
    }
    kernel_h: 9
    kernel_w: 25
  }
}
layer {
  name: "relu_25_19"
  type: "ReLU"
  bottom: "conv_25_19"
  top: "conv_25_19"
}
layer {
  name: "fc_25_19"
  type: "InnerProduct"
  bottom: "conv_25_19"
  top: "fc_25_19"
  inner_product_param {
    num_output: 1
    weight_filler {
      type: "constant"
      value: 1
    }
    bias_filler {
      type: "constant"
      value: 0
    }
  }
}
layer {
  name: "conv_25_20"
  type: "Convolution"
  bottom: "data"
  top: "conv_25_20"
  convolution_param {
    num_output: 1
    pad: 0
    stride: 1
    weight_filler {
      type: "constant"
      value: 0
    }
    bias_filler {
      type: "constant"
      value: -1
    }
    kernel_h: 10
    kernel_w: 24
  }
}
layer {
  name: "relu_25_20"
  type: "ReLU"
  bottom: "conv_25_20"
  top: "conv_25_20"
}
layer {
  name: "fc_25_20"
  type: "InnerProduct"
  bottom: "conv_25_20"
  top: "fc_25_20"
  inner_product_param {
    num_output: 1
    weight_filler {
      type: "constant"
      value: 1
    }
    bias_filler {
      type: "constant"
      value: 0
    }
  }
}
layer {
  name: "conv_25_21"
  type: "Convolution"
  bottom: "data"
  top: "conv_25_21"
  convolution_param {
    num_output: 1
    pad: 0
    stride: 1
    weight_filler {
      type: "constant"
      value: 0
    }
    bias_filler {
      type: "constant"
      value: -1
    }
    kernel_h: 10
    kernel_w: 24
  }
}
layer {
  name: "relu_25_21"
  type: "ReLU"
  bottom: "conv_25_21"
  top: "conv_25_21"
}
layer {
  name: "fc_25_21"
  type: "InnerProduct"
  bottom: "conv_25_21"
  top: "fc_25_21"
  inner_product_param {
    num_output: 1
    weight_filler {
      type: "constant"
      value: 1
    }
    bias_filler {
      type: "constant"
      value: 0
    }
  }
}
layer {
  name: "conv_25_22"
  type: "Convolution"
  bottom: "data"
  top: "conv_25_22"
  convolution_param {
    num_output: 1
    pad: 0
    stride: 1
    weight_filler {
      type: "constant"
      value: 0
    }
    bias_filler {
      type: "constant"
      value: -1
    }
    kernel_h: 11
    kernel_w: 24
  }
}
layer {
  name: "relu_25_22"
  type: "ReLU"
  bottom: "conv_25_22"
  top: "conv_25_22"
}
layer {
  name: "fc_25_22"
  type: "InnerProduct"
  bottom: "conv_25_22"
  top: "fc_25_22"
  inner_product_param {
    num_output: 1
    weight_filler {
      type: "constant"
      value: 1
    }
    bias_filler {
      type: "constant"
      value: 0
    }
  }
}
layer {
  name: "conv_25_23"
  type: "Convolution"
  bottom: "data"
  top: "conv_25_23"
  convolution_param {
    num_output: 1
    pad: 0
    stride: 1
    weight_filler {
      type: "constant"
      value: 0
    }
    bias_filler {
      type: "constant"
      value: -1
    }
    kernel_h: 11
    kernel_w: 24
  }
}
layer {
  name: "relu_25_23"
  type: "ReLU"
  bottom: "conv_25_23"
  top: "conv_25_23"
}
layer {
  name: "fc_25_23"
  type: "InnerProduct"
  bottom: "conv_25_23"
  top: "fc_25_23"
  inner_product_param {
    num_output: 1
    weight_filler {
      type: "constant"
      value: 1
    }
    bias_filler {
      type: "constant"
      value: 0
    }
  }
}
layer {
  name: "conv_25_24"
  type: "Convolution"
  bottom: "data"
  top: "conv_25_24"
  convolution_param {
    num_output: 1
    pad: 0
    stride: 1
    weight_filler {
      type: "constant"
      value: 0
    }
    bias_filler {
      type: "constant"
      value: -1
    }
    kernel_h: 12
    kernel_w: 23
  }
}
layer {
  name: "relu_25_24"
  type: "ReLU"
  bottom: "conv_25_24"
  top: "conv_25_24"
}
layer {
  name: "fc_25_24"
  type: "InnerProduct"
  bottom: "conv_25_24"
  top: "fc_25_24"
  inner_product_param {
    num_output: 1
    weight_filler {
      type: "constant"
      value: 1
    }
    bias_filler {
      type: "constant"
      value: 0
    }
  }
}
layer {
  name: "conv_25_25"
  type: "Convolution"
  bottom: "data"
  top: "conv_25_25"
  convolution_param {
    num_output: 1
    pad: 0
    stride: 1
    weight_filler {
      type: "constant"
      value: 0
    }
    bias_filler {
      type: "constant"
      value: -1
    }
    kernel_h: 12
    kernel_w: 23
  }
}
layer {
  name: "relu_25_25"
  type: "ReLU"
  bottom: "conv_25_25"
  top: "conv_25_25"
}
layer {
  name: "fc_25_25"
  type: "InnerProduct"
  bottom: "conv_25_25"
  top: "fc_25_25"
  inner_product_param {
    num_output: 1
    weight_filler {
      type: "constant"
      value: 1
    }
    bias_filler {
      type: "constant"
      value: 0
    }
  }
}
layer {
  name: "conv_25_26"
  type: "Convolution"
  bottom: "data"
  top: "conv_25_26"
  convolution_param {
    num_output: 1
    pad: 0
    stride: 1
    weight_filler {
      type: "constant"
      value: 0
    }
    bias_filler {
      type: "constant"
      value: -1
    }
    kernel_h: 12
    kernel_w: 24
  }
}
layer {
  name: "relu_25_26"
  type: "ReLU"
  bottom: "conv_25_26"
  top: "conv_25_26"
}
layer {
  name: "fc_25_26"
  type: "InnerProduct"
  bottom: "conv_25_26"
  top: "fc_25_26"
  inner_product_param {
    num_output: 1
    weight_filler {
      type: "constant"
      value: 1
    }
    bias_filler {
      type: "constant"
      value: 0
    }
  }
}
layer {
  name: "conv_25_27"
  type: "Convolution"
  bottom: "data"
  top: "conv_25_27"
  convolution_param {
    num_output: 1
    pad: 0
    stride: 1
    weight_filler {
      type: "constant"
      value: 0
    }
    bias_filler {
      type: "constant"
      value: -1
    }
    kernel_h: 12
    kernel_w: 24
  }
}
layer {
  name: "relu_25_27"
  type: "ReLU"
  bottom: "conv_25_27"
  top: "conv_25_27"
}
layer {
  name: "fc_25_27"
  type: "InnerProduct"
  bottom: "conv_25_27"
  top: "fc_25_27"
  inner_product_param {
    num_output: 1
    weight_filler {
      type: "constant"
      value: 1
    }
    bias_filler {
      type: "constant"
      value: 0
    }
  }
}
layer {
  name: "conv_25_28"
  type: "Convolution"
  bottom: "data"
  top: "conv_25_28"
  convolution_param {
    num_output: 1
    pad: 0
    stride: 1
    weight_filler {
      type: "constant"
      value: 0
    }
    bias_filler {
      type: "constant"
      value: -1
    }
    kernel_h: 13
    kernel_w: 23
  }
}
layer {
  name: "relu_25_28"
  type: "ReLU"
  bottom: "conv_25_28"
  top: "conv_25_28"
}
layer {
  name: "fc_25_28"
  type: "InnerProduct"
  bottom: "conv_25_28"
  top: "fc_25_28"
  inner_product_param {
    num_output: 1
    weight_filler {
      type: "constant"
      value: 1
    }
    bias_filler {
      type: "constant"
      value: 0
    }
  }
}
layer {
  name: "conv_25_29"
  type: "Convolution"
  bottom: "data"
  top: "conv_25_29"
  convolution_param {
    num_output: 1
    pad: 0
    stride: 1
    weight_filler {
      type: "constant"
      value: 0
    }
    bias_filler {
      type: "constant"
      value: -1
    }
    kernel_h: 13
    kernel_w: 23
  }
}
layer {
  name: "relu_25_29"
  type: "ReLU"
  bottom: "conv_25_29"
  top: "conv_25_29"
}
layer {
  name: "fc_25_29"
  type: "InnerProduct"
  bottom: "conv_25_29"
  top: "fc_25_29"
  inner_product_param {
    num_output: 1
    weight_filler {
      type: "constant"
      value: 1
    }
    bias_filler {
      type: "constant"
      value: 0
    }
  }
}
layer {
  name: "conv_25_30"
  type: "Convolution"
  bottom: "data"
  top: "conv_25_30"
  convolution_param {
    num_output: 1
    pad: 0
    stride: 1
    weight_filler {
      type: "constant"
      value: 0
    }
    bias_filler {
      type: "constant"
      value: -1
    }
    kernel_h: 14
    kernel_w: 22
  }
}
layer {
  name: "relu_25_30"
  type: "ReLU"
  bottom: "conv_25_30"
  top: "conv_25_30"
}
layer {
  name: "fc_25_30"
  type: "InnerProduct"
  bottom: "conv_25_30"
  top: "fc_25_30"
  inner_product_param {
    num_output: 1
    weight_filler {
      type: "constant"
      value: 1
    }
    bias_filler {
      type: "constant"
      value: 0
    }
  }
}
layer {
  name: "conv_25_31"
  type: "Convolution"
  bottom: "data"
  top: "conv_25_31"
  convolution_param {
    num_output: 1
    pad: 0
    stride: 1
    weight_filler {
      type: "constant"
      value: 0
    }
    bias_filler {
      type: "constant"
      value: -1
    }
    kernel_h: 14
    kernel_w: 22
  }
}
layer {
  name: "relu_25_31"
  type: "ReLU"
  bottom: "conv_25_31"
  top: "conv_25_31"
}
layer {
  name: "fc_25_31"
  type: "InnerProduct"
  bottom: "conv_25_31"
  top: "fc_25_31"
  inner_product_param {
    num_output: 1
    weight_filler {
      type: "constant"
      value: 1
    }
    bias_filler {
      type: "constant"
      value: 0
    }
  }
}
layer {
  name: "conv_25_32"
  type: "Convolution"
  bottom: "data"
  top: "conv_25_32"
  convolution_param {
    num_output: 1
    pad: 0
    stride: 1
    weight_filler {
      type: "constant"
      value: 0
    }
    bias_filler {
      type: "constant"
      value: -1
    }
    kernel_h: 15
    kernel_w: 22
  }
}
layer {
  name: "relu_25_32"
  type: "ReLU"
  bottom: "conv_25_32"
  top: "conv_25_32"
}
layer {
  name: "fc_25_32"
  type: "InnerProduct"
  bottom: "conv_25_32"
  top: "fc_25_32"
  inner_product_param {
    num_output: 1
    weight_filler {
      type: "constant"
      value: 1
    }
    bias_filler {
      type: "constant"
      value: 0
    }
  }
}
layer {
  name: "conv_25_33"
  type: "Convolution"
  bottom: "data"
  top: "conv_25_33"
  convolution_param {
    num_output: 1
    pad: 0
    stride: 1
    weight_filler {
      type: "constant"
      value: 0
    }
    bias_filler {
      type: "constant"
      value: -1
    }
    kernel_h: 15
    kernel_w: 22
  }
}
layer {
  name: "relu_25_33"
  type: "ReLU"
  bottom: "conv_25_33"
  top: "conv_25_33"
}
layer {
  name: "fc_25_33"
  type: "InnerProduct"
  bottom: "conv_25_33"
  top: "fc_25_33"
  inner_product_param {
    num_output: 1
    weight_filler {
      type: "constant"
      value: 1
    }
    bias_filler {
      type: "constant"
      value: 0
    }
  }
}
layer {
  name: "conv_25_34"
  type: "Convolution"
  bottom: "data"
  top: "conv_25_34"
  convolution_param {
    num_output: 1
    pad: 0
    stride: 1
    weight_filler {
      type: "constant"
      value: 0
    }
    bias_filler {
      type: "constant"
      value: -1
    }
    kernel_h: 16
    kernel_w: 21
  }
}
layer {
  name: "relu_25_34"
  type: "ReLU"
  bottom: "conv_25_34"
  top: "conv_25_34"
}
layer {
  name: "fc_25_34"
  type: "InnerProduct"
  bottom: "conv_25_34"
  top: "fc_25_34"
  inner_product_param {
    num_output: 1
    weight_filler {
      type: "constant"
      value: 1
    }
    bias_filler {
      type: "constant"
      value: 0
    }
  }
}
layer {
  name: "conv_25_35"
  type: "Convolution"
  bottom: "data"
  top: "conv_25_35"
  convolution_param {
    num_output: 1
    pad: 0
    stride: 1
    weight_filler {
      type: "constant"
      value: 0
    }
    bias_filler {
      type: "constant"
      value: -1
    }
    kernel_h: 16
    kernel_w: 21
  }
}
layer {
  name: "relu_25_35"
  type: "ReLU"
  bottom: "conv_25_35"
  top: "conv_25_35"
}
layer {
  name: "fc_25_35"
  type: "InnerProduct"
  bottom: "conv_25_35"
  top: "fc_25_35"
  inner_product_param {
    num_output: 1
    weight_filler {
      type: "constant"
      value: 1
    }
    bias_filler {
      type: "constant"
      value: 0
    }
  }
}
layer {
  name: "conv_25_36"
  type: "Convolution"
  bottom: "data"
  top: "conv_25_36"
  convolution_param {
    num_output: 1
    pad: 0
    stride: 1
    weight_filler {
      type: "constant"
      value: 0
    }
    bias_filler {
      type: "constant"
      value: -1
    }
    kernel_h: 17
    kernel_w: 20
  }
}
layer {
  name: "relu_25_36"
  type: "ReLU"
  bottom: "conv_25_36"
  top: "conv_25_36"
}
layer {
  name: "fc_25_36"
  type: "InnerProduct"
  bottom: "conv_25_36"
  top: "fc_25_36"
  inner_product_param {
    num_output: 1
    weight_filler {
      type: "constant"
      value: 1
    }
    bias_filler {
      type: "constant"
      value: 0
    }
  }
}
layer {
  name: "conv_25_37"
  type: "Convolution"
  bottom: "data"
  top: "conv_25_37"
  convolution_param {
    num_output: 1
    pad: 0
    stride: 1
    weight_filler {
      type: "constant"
      value: 0
    }
    bias_filler {
      type: "constant"
      value: -1
    }
    kernel_h: 17
    kernel_w: 20
  }
}
layer {
  name: "relu_25_37"
  type: "ReLU"
  bottom: "conv_25_37"
  top: "conv_25_37"
}
layer {
  name: "fc_25_37"
  type: "InnerProduct"
  bottom: "conv_25_37"
  top: "fc_25_37"
  inner_product_param {
    num_output: 1
    weight_filler {
      type: "constant"
      value: 1
    }
    bias_filler {
      type: "constant"
      value: 0
    }
  }
}
layer {
  name: "conv_25_38"
  type: "Convolution"
  bottom: "data"
  top: "conv_25_38"
  convolution_param {
    num_output: 1
    pad: 0
    stride: 1
    weight_filler {
      type: "constant"
      value: 0
    }
    bias_filler {
      type: "constant"
      value: -1
    }
    kernel_h: 18
    kernel_w: 19
  }
}
layer {
  name: "relu_25_38"
  type: "ReLU"
  bottom: "conv_25_38"
  top: "conv_25_38"
}
layer {
  name: "fc_25_38"
  type: "InnerProduct"
  bottom: "conv_25_38"
  top: "fc_25_38"
  inner_product_param {
    num_output: 1
    weight_filler {
      type: "constant"
      value: 1
    }
    bias_filler {
      type: "constant"
      value: 0
    }
  }
}
layer {
  name: "conv_25_39"
  type: "Convolution"
  bottom: "data"
  top: "conv_25_39"
  convolution_param {
    num_output: 1
    pad: 0
    stride: 1
    weight_filler {
      type: "constant"
      value: 0
    }
    bias_filler {
      type: "constant"
      value: -1
    }
    kernel_h: 18
    kernel_w: 19
  }
}
layer {
  name: "relu_25_39"
  type: "ReLU"
  bottom: "conv_25_39"
  top: "conv_25_39"
}
layer {
  name: "fc_25_39"
  type: "InnerProduct"
  bottom: "conv_25_39"
  top: "fc_25_39"
  inner_product_param {
    num_output: 1
    weight_filler {
      type: "constant"
      value: 1
    }
    bias_filler {
      type: "constant"
      value: 0
    }
  }
}
layer {
  name: "conv_25_40"
  type: "Convolution"
  bottom: "data"
  top: "conv_25_40"
  convolution_param {
    num_output: 1
    pad: 0
    stride: 1
    weight_filler {
      type: "constant"
      value: 0
    }
    bias_filler {
      type: "constant"
      value: -1
    }
    kernel_h: 18
    kernel_w: 20
  }
}
layer {
  name: "relu_25_40"
  type: "ReLU"
  bottom: "conv_25_40"
  top: "conv_25_40"
}
layer {
  name: "fc_25_40"
  type: "InnerProduct"
  bottom: "conv_25_40"
  top: "fc_25_40"
  inner_product_param {
    num_output: 1
    weight_filler {
      type: "constant"
      value: 1
    }
    bias_filler {
      type: "constant"
      value: 0
    }
  }
}
layer {
  name: "conv_25_41"
  type: "Convolution"
  bottom: "data"
  top: "conv_25_41"
  convolution_param {
    num_output: 1
    pad: 0
    stride: 1
    weight_filler {
      type: "constant"
      value: 0
    }
    bias_filler {
      type: "constant"
      value: -1
    }
    kernel_h: 18
    kernel_w: 20
  }
}
layer {
  name: "relu_25_41"
  type: "ReLU"
  bottom: "conv_25_41"
  top: "conv_25_41"
}
layer {
  name: "fc_25_41"
  type: "InnerProduct"
  bottom: "conv_25_41"
  top: "fc_25_41"
  inner_product_param {
    num_output: 1
    weight_filler {
      type: "constant"
      value: 1
    }
    bias_filler {
      type: "constant"
      value: 0
    }
  }
}
layer {
  name: "conv_25_42"
  type: "Convolution"
  bottom: "data"
  top: "conv_25_42"
  convolution_param {
    num_output: 1
    pad: 0
    stride: 1
    weight_filler {
      type: "constant"
      value: 0
    }
    bias_filler {
      type: "constant"
      value: -1
    }
    kernel_h: 19
    kernel_w: 18
  }
}
layer {
  name: "relu_25_42"
  type: "ReLU"
  bottom: "conv_25_42"
  top: "conv_25_42"
}
layer {
  name: "fc_25_42"
  type: "InnerProduct"
  bottom: "conv_25_42"
  top: "fc_25_42"
  inner_product_param {
    num_output: 1
    weight_filler {
      type: "constant"
      value: 1
    }
    bias_filler {
      type: "constant"
      value: 0
    }
  }
}
layer {
  name: "conv_25_43"
  type: "Convolution"
  bottom: "data"
  top: "conv_25_43"
  convolution_param {
    num_output: 1
    pad: 0
    stride: 1
    weight_filler {
      type: "constant"
      value: 0
    }
    bias_filler {
      type: "constant"
      value: -1
    }
    kernel_h: 19
    kernel_w: 18
  }
}
layer {
  name: "relu_25_43"
  type: "ReLU"
  bottom: "conv_25_43"
  top: "conv_25_43"
}
layer {
  name: "fc_25_43"
  type: "InnerProduct"
  bottom: "conv_25_43"
  top: "fc_25_43"
  inner_product_param {
    num_output: 1
    weight_filler {
      type: "constant"
      value: 1
    }
    bias_filler {
      type: "constant"
      value: 0
    }
  }
}
layer {
  name: "conv_25_44"
  type: "Convolution"
  bottom: "data"
  top: "conv_25_44"
  convolution_param {
    num_output: 1
    pad: 0
    stride: 1
    weight_filler {
      type: "constant"
      value: 0
    }
    bias_filler {
      type: "constant"
      value: -1
    }
    kernel_h: 19
    kernel_w: 19
  }
}
layer {
  name: "relu_25_44"
  type: "ReLU"
  bottom: "conv_25_44"
  top: "conv_25_44"
}
layer {
  name: "fc_25_44"
  type: "InnerProduct"
  bottom: "conv_25_44"
  top: "fc_25_44"
  inner_product_param {
    num_output: 1
    weight_filler {
      type: "constant"
      value: 1
    }
    bias_filler {
      type: "constant"
      value: 0
    }
  }
}
layer {
  name: "conv_25_45"
  type: "Convolution"
  bottom: "data"
  top: "conv_25_45"
  convolution_param {
    num_output: 1
    pad: 0
    stride: 1
    weight_filler {
      type: "constant"
      value: 0
    }
    bias_filler {
      type: "constant"
      value: -1
    }
    kernel_h: 19
    kernel_w: 19
  }
}
layer {
  name: "relu_25_45"
  type: "ReLU"
  bottom: "conv_25_45"
  top: "conv_25_45"
}
layer {
  name: "fc_25_45"
  type: "InnerProduct"
  bottom: "conv_25_45"
  top: "fc_25_45"
  inner_product_param {
    num_output: 1
    weight_filler {
      type: "constant"
      value: 1
    }
    bias_filler {
      type: "constant"
      value: 0
    }
  }
}
layer {
  name: "conv_25_46"
  type: "Convolution"
  bottom: "data"
  top: "conv_25_46"
  convolution_param {
    num_output: 1
    pad: 0
    stride: 1
    weight_filler {
      type: "constant"
      value: 0
    }
    bias_filler {
      type: "constant"
      value: -1
    }
    kernel_h: 20
    kernel_w: 17
  }
}
layer {
  name: "relu_25_46"
  type: "ReLU"
  bottom: "conv_25_46"
  top: "conv_25_46"
}
layer {
  name: "fc_25_46"
  type: "InnerProduct"
  bottom: "conv_25_46"
  top: "fc_25_46"
  inner_product_param {
    num_output: 1
    weight_filler {
      type: "constant"
      value: 1
    }
    bias_filler {
      type: "constant"
      value: 0
    }
  }
}
layer {
  name: "conv_25_47"
  type: "Convolution"
  bottom: "data"
  top: "conv_25_47"
  convolution_param {
    num_output: 1
    pad: 0
    stride: 1
    weight_filler {
      type: "constant"
      value: 0
    }
    bias_filler {
      type: "constant"
      value: -1
    }
    kernel_h: 20
    kernel_w: 17
  }
}
layer {
  name: "relu_25_47"
  type: "ReLU"
  bottom: "conv_25_47"
  top: "conv_25_47"
}
layer {
  name: "fc_25_47"
  type: "InnerProduct"
  bottom: "conv_25_47"
  top: "fc_25_47"
  inner_product_param {
    num_output: 1
    weight_filler {
      type: "constant"
      value: 1
    }
    bias_filler {
      type: "constant"
      value: 0
    }
  }
}
layer {
  name: "conv_25_48"
  type: "Convolution"
  bottom: "data"
  top: "conv_25_48"
  convolution_param {
    num_output: 1
    pad: 0
    stride: 1
    weight_filler {
      type: "constant"
      value: 0
    }
    bias_filler {
      type: "constant"
      value: -1
    }
    kernel_h: 20
    kernel_w: 18
  }
}
layer {
  name: "relu_25_48"
  type: "ReLU"
  bottom: "conv_25_48"
  top: "conv_25_48"
}
layer {
  name: "fc_25_48"
  type: "InnerProduct"
  bottom: "conv_25_48"
  top: "fc_25_48"
  inner_product_param {
    num_output: 1
    weight_filler {
      type: "constant"
      value: 1
    }
    bias_filler {
      type: "constant"
      value: 0
    }
  }
}
layer {
  name: "conv_25_49"
  type: "Convolution"
  bottom: "data"
  top: "conv_25_49"
  convolution_param {
    num_output: 1
    pad: 0
    stride: 1
    weight_filler {
      type: "constant"
      value: 0
    }
    bias_filler {
      type: "constant"
      value: -1
    }
    kernel_h: 20
    kernel_w: 18
  }
}
layer {
  name: "relu_25_49"
  type: "ReLU"
  bottom: "conv_25_49"
  top: "conv_25_49"
}
layer {
  name: "fc_25_49"
  type: "InnerProduct"
  bottom: "conv_25_49"
  top: "fc_25_49"
  inner_product_param {
    num_output: 1
    weight_filler {
      type: "constant"
      value: 1
    }
    bias_filler {
      type: "constant"
      value: 0
    }
  }
}
layer {
  name: "conv_25_50"
  type: "Convolution"
  bottom: "data"
  top: "conv_25_50"
  convolution_param {
    num_output: 1
    pad: 0
    stride: 1
    weight_filler {
      type: "constant"
      value: 0
    }
    bias_filler {
      type: "constant"
      value: -1
    }
    kernel_h: 21
    kernel_w: 16
  }
}
layer {
  name: "relu_25_50"
  type: "ReLU"
  bottom: "conv_25_50"
  top: "conv_25_50"
}
layer {
  name: "fc_25_50"
  type: "InnerProduct"
  bottom: "conv_25_50"
  top: "fc_25_50"
  inner_product_param {
    num_output: 1
    weight_filler {
      type: "constant"
      value: 1
    }
    bias_filler {
      type: "constant"
      value: 0
    }
  }
}
layer {
  name: "conv_25_51"
  type: "Convolution"
  bottom: "data"
  top: "conv_25_51"
  convolution_param {
    num_output: 1
    pad: 0
    stride: 1
    weight_filler {
      type: "constant"
      value: 0
    }
    bias_filler {
      type: "constant"
      value: -1
    }
    kernel_h: 21
    kernel_w: 16
  }
}
layer {
  name: "relu_25_51"
  type: "ReLU"
  bottom: "conv_25_51"
  top: "conv_25_51"
}
layer {
  name: "fc_25_51"
  type: "InnerProduct"
  bottom: "conv_25_51"
  top: "fc_25_51"
  inner_product_param {
    num_output: 1
    weight_filler {
      type: "constant"
      value: 1
    }
    bias_filler {
      type: "constant"
      value: 0
    }
  }
}
layer {
  name: "conv_25_52"
  type: "Convolution"
  bottom: "data"
  top: "conv_25_52"
  convolution_param {
    num_output: 1
    pad: 0
    stride: 1
    weight_filler {
      type: "constant"
      value: 0
    }
    bias_filler {
      type: "constant"
      value: -1
    }
    kernel_h: 22
    kernel_w: 14
  }
}
layer {
  name: "relu_25_52"
  type: "ReLU"
  bottom: "conv_25_52"
  top: "conv_25_52"
}
layer {
  name: "fc_25_52"
  type: "InnerProduct"
  bottom: "conv_25_52"
  top: "fc_25_52"
  inner_product_param {
    num_output: 1
    weight_filler {
      type: "constant"
      value: 1
    }
    bias_filler {
      type: "constant"
      value: 0
    }
  }
}
layer {
  name: "conv_25_53"
  type: "Convolution"
  bottom: "data"
  top: "conv_25_53"
  convolution_param {
    num_output: 1
    pad: 0
    stride: 1
    weight_filler {
      type: "constant"
      value: 0
    }
    bias_filler {
      type: "constant"
      value: -1
    }
    kernel_h: 22
    kernel_w: 14
  }
}
layer {
  name: "relu_25_53"
  type: "ReLU"
  bottom: "conv_25_53"
  top: "conv_25_53"
}
layer {
  name: "fc_25_53"
  type: "InnerProduct"
  bottom: "conv_25_53"
  top: "fc_25_53"
  inner_product_param {
    num_output: 1
    weight_filler {
      type: "constant"
      value: 1
    }
    bias_filler {
      type: "constant"
      value: 0
    }
  }
}
layer {
  name: "conv_25_54"
  type: "Convolution"
  bottom: "data"
  top: "conv_25_54"
  convolution_param {
    num_output: 1
    pad: 0
    stride: 1
    weight_filler {
      type: "constant"
      value: 0
    }
    bias_filler {
      type: "constant"
      value: -1
    }
    kernel_h: 22
    kernel_w: 15
  }
}
layer {
  name: "relu_25_54"
  type: "ReLU"
  bottom: "conv_25_54"
  top: "conv_25_54"
}
layer {
  name: "fc_25_54"
  type: "InnerProduct"
  bottom: "conv_25_54"
  top: "fc_25_54"
  inner_product_param {
    num_output: 1
    weight_filler {
      type: "constant"
      value: 1
    }
    bias_filler {
      type: "constant"
      value: 0
    }
  }
}
layer {
  name: "conv_25_55"
  type: "Convolution"
  bottom: "data"
  top: "conv_25_55"
  convolution_param {
    num_output: 1
    pad: 0
    stride: 1
    weight_filler {
      type: "constant"
      value: 0
    }
    bias_filler {
      type: "constant"
      value: -1
    }
    kernel_h: 22
    kernel_w: 15
  }
}
layer {
  name: "relu_25_55"
  type: "ReLU"
  bottom: "conv_25_55"
  top: "conv_25_55"
}
layer {
  name: "fc_25_55"
  type: "InnerProduct"
  bottom: "conv_25_55"
  top: "fc_25_55"
  inner_product_param {
    num_output: 1
    weight_filler {
      type: "constant"
      value: 1
    }
    bias_filler {
      type: "constant"
      value: 0
    }
  }
}
layer {
  name: "conv_25_56"
  type: "Convolution"
  bottom: "data"
  top: "conv_25_56"
  convolution_param {
    num_output: 1
    pad: 0
    stride: 1
    weight_filler {
      type: "constant"
      value: 0
    }
    bias_filler {
      type: "constant"
      value: -1
    }
    kernel_h: 23
    kernel_w: 12
  }
}
layer {
  name: "relu_25_56"
  type: "ReLU"
  bottom: "conv_25_56"
  top: "conv_25_56"
}
layer {
  name: "fc_25_56"
  type: "InnerProduct"
  bottom: "conv_25_56"
  top: "fc_25_56"
  inner_product_param {
    num_output: 1
    weight_filler {
      type: "constant"
      value: 1
    }
    bias_filler {
      type: "constant"
      value: 0
    }
  }
}
layer {
  name: "conv_25_57"
  type: "Convolution"
  bottom: "data"
  top: "conv_25_57"
  convolution_param {
    num_output: 1
    pad: 0
    stride: 1
    weight_filler {
      type: "constant"
      value: 0
    }
    bias_filler {
      type: "constant"
      value: -1
    }
    kernel_h: 23
    kernel_w: 12
  }
}
layer {
  name: "relu_25_57"
  type: "ReLU"
  bottom: "conv_25_57"
  top: "conv_25_57"
}
layer {
  name: "fc_25_57"
  type: "InnerProduct"
  bottom: "conv_25_57"
  top: "fc_25_57"
  inner_product_param {
    num_output: 1
    weight_filler {
      type: "constant"
      value: 1
    }
    bias_filler {
      type: "constant"
      value: 0
    }
  }
}
layer {
  name: "conv_25_58"
  type: "Convolution"
  bottom: "data"
  top: "conv_25_58"
  convolution_param {
    num_output: 1
    pad: 0
    stride: 1
    weight_filler {
      type: "constant"
      value: 0
    }
    bias_filler {
      type: "constant"
      value: -1
    }
    kernel_h: 23
    kernel_w: 13
  }
}
layer {
  name: "relu_25_58"
  type: "ReLU"
  bottom: "conv_25_58"
  top: "conv_25_58"
}
layer {
  name: "fc_25_58"
  type: "InnerProduct"
  bottom: "conv_25_58"
  top: "fc_25_58"
  inner_product_param {
    num_output: 1
    weight_filler {
      type: "constant"
      value: 1
    }
    bias_filler {
      type: "constant"
      value: 0
    }
  }
}
layer {
  name: "conv_25_59"
  type: "Convolution"
  bottom: "data"
  top: "conv_25_59"
  convolution_param {
    num_output: 1
    pad: 0
    stride: 1
    weight_filler {
      type: "constant"
      value: 0
    }
    bias_filler {
      type: "constant"
      value: -1
    }
    kernel_h: 23
    kernel_w: 13
  }
}
layer {
  name: "relu_25_59"
  type: "ReLU"
  bottom: "conv_25_59"
  top: "conv_25_59"
}
layer {
  name: "fc_25_59"
  type: "InnerProduct"
  bottom: "conv_25_59"
  top: "fc_25_59"
  inner_product_param {
    num_output: 1
    weight_filler {
      type: "constant"
      value: 1
    }
    bias_filler {
      type: "constant"
      value: 0
    }
  }
}
layer {
  name: "conv_25_60"
  type: "Convolution"
  bottom: "data"
  top: "conv_25_60"
  convolution_param {
    num_output: 1
    pad: 0
    stride: 1
    weight_filler {
      type: "constant"
      value: 0
    }
    bias_filler {
      type: "constant"
      value: -1
    }
    kernel_h: 24
    kernel_w: 10
  }
}
layer {
  name: "relu_25_60"
  type: "ReLU"
  bottom: "conv_25_60"
  top: "conv_25_60"
}
layer {
  name: "fc_25_60"
  type: "InnerProduct"
  bottom: "conv_25_60"
  top: "fc_25_60"
  inner_product_param {
    num_output: 1
    weight_filler {
      type: "constant"
      value: 1
    }
    bias_filler {
      type: "constant"
      value: 0
    }
  }
}
layer {
  name: "conv_25_61"
  type: "Convolution"
  bottom: "data"
  top: "conv_25_61"
  convolution_param {
    num_output: 1
    pad: 0
    stride: 1
    weight_filler {
      type: "constant"
      value: 0
    }
    bias_filler {
      type: "constant"
      value: -1
    }
    kernel_h: 24
    kernel_w: 10
  }
}
layer {
  name: "relu_25_61"
  type: "ReLU"
  bottom: "conv_25_61"
  top: "conv_25_61"
}
layer {
  name: "fc_25_61"
  type: "InnerProduct"
  bottom: "conv_25_61"
  top: "fc_25_61"
  inner_product_param {
    num_output: 1
    weight_filler {
      type: "constant"
      value: 1
    }
    bias_filler {
      type: "constant"
      value: 0
    }
  }
}
layer {
  name: "conv_25_62"
  type: "Convolution"
  bottom: "data"
  top: "conv_25_62"
  convolution_param {
    num_output: 1
    pad: 0
    stride: 1
    weight_filler {
      type: "constant"
      value: 0
    }
    bias_filler {
      type: "constant"
      value: -1
    }
    kernel_h: 24
    kernel_w: 11
  }
}
layer {
  name: "relu_25_62"
  type: "ReLU"
  bottom: "conv_25_62"
  top: "conv_25_62"
}
layer {
  name: "fc_25_62"
  type: "InnerProduct"
  bottom: "conv_25_62"
  top: "fc_25_62"
  inner_product_param {
    num_output: 1
    weight_filler {
      type: "constant"
      value: 1
    }
    bias_filler {
      type: "constant"
      value: 0
    }
  }
}
layer {
  name: "conv_25_63"
  type: "Convolution"
  bottom: "data"
  top: "conv_25_63"
  convolution_param {
    num_output: 1
    pad: 0
    stride: 1
    weight_filler {
      type: "constant"
      value: 0
    }
    bias_filler {
      type: "constant"
      value: -1
    }
    kernel_h: 24
    kernel_w: 11
  }
}
layer {
  name: "relu_25_63"
  type: "ReLU"
  bottom: "conv_25_63"
  top: "conv_25_63"
}
layer {
  name: "fc_25_63"
  type: "InnerProduct"
  bottom: "conv_25_63"
  top: "fc_25_63"
  inner_product_param {
    num_output: 1
    weight_filler {
      type: "constant"
      value: 1
    }
    bias_filler {
      type: "constant"
      value: 0
    }
  }
}
layer {
  name: "conv_25_64"
  type: "Convolution"
  bottom: "data"
  top: "conv_25_64"
  convolution_param {
    num_output: 1
    pad: 0
    stride: 1
    weight_filler {
      type: "constant"
      value: 0
    }
    bias_filler {
      type: "constant"
      value: -1
    }
    kernel_h: 24
    kernel_w: 12
  }
}
layer {
  name: "relu_25_64"
  type: "ReLU"
  bottom: "conv_25_64"
  top: "conv_25_64"
}
layer {
  name: "fc_25_64"
  type: "InnerProduct"
  bottom: "conv_25_64"
  top: "fc_25_64"
  inner_product_param {
    num_output: 1
    weight_filler {
      type: "constant"
      value: 1
    }
    bias_filler {
      type: "constant"
      value: 0
    }
  }
}
layer {
  name: "conv_25_65"
  type: "Convolution"
  bottom: "data"
  top: "conv_25_65"
  convolution_param {
    num_output: 1
    pad: 0
    stride: 1
    weight_filler {
      type: "constant"
      value: 0
    }
    bias_filler {
      type: "constant"
      value: -1
    }
    kernel_h: 24
    kernel_w: 12
  }
}
layer {
  name: "relu_25_65"
  type: "ReLU"
  bottom: "conv_25_65"
  top: "conv_25_65"
}
layer {
  name: "fc_25_65"
  type: "InnerProduct"
  bottom: "conv_25_65"
  top: "fc_25_65"
  inner_product_param {
    num_output: 1
    weight_filler {
      type: "constant"
      value: 1
    }
    bias_filler {
      type: "constant"
      value: 0
    }
  }
}
layer {
  name: "conv_25_66"
  type: "Convolution"
  bottom: "data"
  top: "conv_25_66"
  convolution_param {
    num_output: 1
    pad: 0
    stride: 1
    weight_filler {
      type: "constant"
      value: 0
    }
    bias_filler {
      type: "constant"
      value: -1
    }
    kernel_h: 25
    kernel_w: 6
  }
}
layer {
  name: "relu_25_66"
  type: "ReLU"
  bottom: "conv_25_66"
  top: "conv_25_66"
}
layer {
  name: "fc_25_66"
  type: "InnerProduct"
  bottom: "conv_25_66"
  top: "fc_25_66"
  inner_product_param {
    num_output: 1
    weight_filler {
      type: "constant"
      value: 1
    }
    bias_filler {
      type: "constant"
      value: 0
    }
  }
}
layer {
  name: "conv_25_67"
  type: "Convolution"
  bottom: "data"
  top: "conv_25_67"
  convolution_param {
    num_output: 1
    pad: 0
    stride: 1
    weight_filler {
      type: "constant"
      value: 0
    }
    bias_filler {
      type: "constant"
      value: -1
    }
    kernel_h: 25
    kernel_w: 6
  }
}
layer {
  name: "relu_25_67"
  type: "ReLU"
  bottom: "conv_25_67"
  top: "conv_25_67"
}
layer {
  name: "fc_25_67"
  type: "InnerProduct"
  bottom: "conv_25_67"
  top: "fc_25_67"
  inner_product_param {
    num_output: 1
    weight_filler {
      type: "constant"
      value: 1
    }
    bias_filler {
      type: "constant"
      value: 0
    }
  }
}
layer {
  name: "conv_25_68"
  type: "Convolution"
  bottom: "data"
  top: "conv_25_68"
  convolution_param {
    num_output: 1
    pad: 0
    stride: 1
    weight_filler {
      type: "constant"
      value: 0
    }
    bias_filler {
      type: "constant"
      value: -1
    }
    kernel_h: 25
    kernel_w: 7
  }
}
layer {
  name: "relu_25_68"
  type: "ReLU"
  bottom: "conv_25_68"
  top: "conv_25_68"
}
layer {
  name: "fc_25_68"
  type: "InnerProduct"
  bottom: "conv_25_68"
  top: "fc_25_68"
  inner_product_param {
    num_output: 1
    weight_filler {
      type: "constant"
      value: 1
    }
    bias_filler {
      type: "constant"
      value: 0
    }
  }
}
layer {
  name: "conv_25_69"
  type: "Convolution"
  bottom: "data"
  top: "conv_25_69"
  convolution_param {
    num_output: 1
    pad: 0
    stride: 1
    weight_filler {
      type: "constant"
      value: 0
    }
    bias_filler {
      type: "constant"
      value: -1
    }
    kernel_h: 25
    kernel_w: 7
  }
}
layer {
  name: "relu_25_69"
  type: "ReLU"
  bottom: "conv_25_69"
  top: "conv_25_69"
}
layer {
  name: "fc_25_69"
  type: "InnerProduct"
  bottom: "conv_25_69"
  top: "fc_25_69"
  inner_product_param {
    num_output: 1
    weight_filler {
      type: "constant"
      value: 1
    }
    bias_filler {
      type: "constant"
      value: 0
    }
  }
}
layer {
  name: "conv_25_70"
  type: "Convolution"
  bottom: "data"
  top: "conv_25_70"
  convolution_param {
    num_output: 1
    pad: 0
    stride: 1
    weight_filler {
      type: "constant"
      value: 0
    }
    bias_filler {
      type: "constant"
      value: -1
    }
    kernel_h: 25
    kernel_w: 8
  }
}
layer {
  name: "relu_25_70"
  type: "ReLU"
  bottom: "conv_25_70"
  top: "conv_25_70"
}
layer {
  name: "fc_25_70"
  type: "InnerProduct"
  bottom: "conv_25_70"
  top: "fc_25_70"
  inner_product_param {
    num_output: 1
    weight_filler {
      type: "constant"
      value: 1
    }
    bias_filler {
      type: "constant"
      value: 0
    }
  }
}
layer {
  name: "conv_25_71"
  type: "Convolution"
  bottom: "data"
  top: "conv_25_71"
  convolution_param {
    num_output: 1
    pad: 0
    stride: 1
    weight_filler {
      type: "constant"
      value: 0
    }
    bias_filler {
      type: "constant"
      value: -1
    }
    kernel_h: 25
    kernel_w: 8
  }
}
layer {
  name: "relu_25_71"
  type: "ReLU"
  bottom: "conv_25_71"
  top: "conv_25_71"
}
layer {
  name: "fc_25_71"
  type: "InnerProduct"
  bottom: "conv_25_71"
  top: "fc_25_71"
  inner_product_param {
    num_output: 1
    weight_filler {
      type: "constant"
      value: 1
    }
    bias_filler {
      type: "constant"
      value: 0
    }
  }
}
layer {
  name: "conv_25_72"
  type: "Convolution"
  bottom: "data"
  top: "conv_25_72"
  convolution_param {
    num_output: 1
    pad: 0
    stride: 1
    weight_filler {
      type: "constant"
      value: 0
    }
    bias_filler {
      type: "constant"
      value: -1
    }
    kernel_h: 25
    kernel_w: 9
  }
}
layer {
  name: "relu_25_72"
  type: "ReLU"
  bottom: "conv_25_72"
  top: "conv_25_72"
}
layer {
  name: "fc_25_72"
  type: "InnerProduct"
  bottom: "conv_25_72"
  top: "fc_25_72"
  inner_product_param {
    num_output: 1
    weight_filler {
      type: "constant"
      value: 1
    }
    bias_filler {
      type: "constant"
      value: 0
    }
  }
}
layer {
  name: "conv_25_73"
  type: "Convolution"
  bottom: "data"
  top: "conv_25_73"
  convolution_param {
    num_output: 1
    pad: 0
    stride: 1
    weight_filler {
      type: "constant"
      value: 0
    }
    bias_filler {
      type: "constant"
      value: -1
    }
    kernel_h: 25
    kernel_w: 9
  }
}
layer {
  name: "relu_25_73"
  type: "ReLU"
  bottom: "conv_25_73"
  top: "conv_25_73"
}
layer {
  name: "fc_25_73"
  type: "InnerProduct"
  bottom: "conv_25_73"
  top: "fc_25_73"
  inner_product_param {
    num_output: 1
    weight_filler {
      type: "constant"
      value: 1
    }
    bias_filler {
      type: "constant"
      value: 0
    }
  }
}
layer {
  name: "conv_25_74"
  type: "Convolution"
  bottom: "data"
  top: "conv_25_74"
  convolution_param {
    num_output: 1
    pad: 0
    stride: 1
    weight_filler {
      type: "constant"
      value: 0
    }
    bias_filler {
      type: "constant"
      value: -1
    }
    kernel_h: 26
    kernel_w: 1
  }
}
layer {
  name: "relu_25_74"
  type: "ReLU"
  bottom: "conv_25_74"
  top: "conv_25_74"
}
layer {
  name: "fc_25_74"
  type: "InnerProduct"
  bottom: "conv_25_74"
  top: "fc_25_74"
  inner_product_param {
    num_output: 1
    weight_filler {
      type: "constant"
      value: 1
    }
    bias_filler {
      type: "constant"
      value: 0
    }
  }
}
layer {
  name: "conv_25_75"
  type: "Convolution"
  bottom: "data"
  top: "conv_25_75"
  convolution_param {
    num_output: 1
    pad: 0
    stride: 1
    weight_filler {
      type: "constant"
      value: 0
    }
    bias_filler {
      type: "constant"
      value: -1
    }
    kernel_h: 26
    kernel_w: 2
  }
}
layer {
  name: "relu_25_75"
  type: "ReLU"
  bottom: "conv_25_75"
  top: "conv_25_75"
}
layer {
  name: "fc_25_75"
  type: "InnerProduct"
  bottom: "conv_25_75"
  top: "fc_25_75"
  inner_product_param {
    num_output: 1
    weight_filler {
      type: "constant"
      value: 1
    }
    bias_filler {
      type: "constant"
      value: 0
    }
  }
}
layer {
  name: "conv_25_76"
  type: "Convolution"
  bottom: "data"
  top: "conv_25_76"
  convolution_param {
    num_output: 1
    pad: 0
    stride: 1
    weight_filler {
      type: "constant"
      value: 0
    }
    bias_filler {
      type: "constant"
      value: -1
    }
    kernel_h: 26
    kernel_w: 2
  }
}
layer {
  name: "relu_25_76"
  type: "ReLU"
  bottom: "conv_25_76"
  top: "conv_25_76"
}
layer {
  name: "fc_25_76"
  type: "InnerProduct"
  bottom: "conv_25_76"
  top: "fc_25_76"
  inner_product_param {
    num_output: 1
    weight_filler {
      type: "constant"
      value: 1
    }
    bias_filler {
      type: "constant"
      value: 0
    }
  }
}
layer {
  name: "conv_25_77"
  type: "Convolution"
  bottom: "data"
  top: "conv_25_77"
  convolution_param {
    num_output: 1
    pad: 0
    stride: 1
    weight_filler {
      type: "constant"
      value: 0
    }
    bias_filler {
      type: "constant"
      value: -1
    }
    kernel_h: 26
    kernel_w: 3
  }
}
layer {
  name: "relu_25_77"
  type: "ReLU"
  bottom: "conv_25_77"
  top: "conv_25_77"
}
layer {
  name: "fc_25_77"
  type: "InnerProduct"
  bottom: "conv_25_77"
  top: "fc_25_77"
  inner_product_param {
    num_output: 1
    weight_filler {
      type: "constant"
      value: 1
    }
    bias_filler {
      type: "constant"
      value: 0
    }
  }
}
layer {
  name: "conv_25_78"
  type: "Convolution"
  bottom: "data"
  top: "conv_25_78"
  convolution_param {
    num_output: 1
    pad: 0
    stride: 1
    weight_filler {
      type: "constant"
      value: 0
    }
    bias_filler {
      type: "constant"
      value: -1
    }
    kernel_h: 26
    kernel_w: 3
  }
}
layer {
  name: "relu_25_78"
  type: "ReLU"
  bottom: "conv_25_78"
  top: "conv_25_78"
}
layer {
  name: "fc_25_78"
  type: "InnerProduct"
  bottom: "conv_25_78"
  top: "fc_25_78"
  inner_product_param {
    num_output: 1
    weight_filler {
      type: "constant"
      value: 1
    }
    bias_filler {
      type: "constant"
      value: 0
    }
  }
}
layer {
  name: "conv_25_79"
  type: "Convolution"
  bottom: "data"
  top: "conv_25_79"
  convolution_param {
    num_output: 1
    pad: 0
    stride: 1
    weight_filler {
      type: "constant"
      value: 0
    }
    bias_filler {
      type: "constant"
      value: -1
    }
    kernel_h: 26
    kernel_w: 4
  }
}
layer {
  name: "relu_25_79"
  type: "ReLU"
  bottom: "conv_25_79"
  top: "conv_25_79"
}
layer {
  name: "fc_25_79"
  type: "InnerProduct"
  bottom: "conv_25_79"
  top: "fc_25_79"
  inner_product_param {
    num_output: 1
    weight_filler {
      type: "constant"
      value: 1
    }
    bias_filler {
      type: "constant"
      value: 0
    }
  }
}
layer {
  name: "conv_25_80"
  type: "Convolution"
  bottom: "data"
  top: "conv_25_80"
  convolution_param {
    num_output: 1
    pad: 0
    stride: 1
    weight_filler {
      type: "constant"
      value: 0
    }
    bias_filler {
      type: "constant"
      value: -1
    }
    kernel_h: 26
    kernel_w: 4
  }
}
layer {
  name: "relu_25_80"
  type: "ReLU"
  bottom: "conv_25_80"
  top: "conv_25_80"
}
layer {
  name: "fc_25_80"
  type: "InnerProduct"
  bottom: "conv_25_80"
  top: "fc_25_80"
  inner_product_param {
    num_output: 1
    weight_filler {
      type: "constant"
      value: 1
    }
    bias_filler {
      type: "constant"
      value: 0
    }
  }
}
layer {
  name: "conv_25_81"
  type: "Convolution"
  bottom: "data"
  top: "conv_25_81"
  convolution_param {
    num_output: 1
    pad: 0
    stride: 1
    weight_filler {
      type: "constant"
      value: 0
    }
    bias_filler {
      type: "constant"
      value: -1
    }
    kernel_h: 26
    kernel_w: 5
  }
}
layer {
  name: "relu_25_81"
  type: "ReLU"
  bottom: "conv_25_81"
  top: "conv_25_81"
}
layer {
  name: "fc_25_81"
  type: "InnerProduct"
  bottom: "conv_25_81"
  top: "fc_25_81"
  inner_product_param {
    num_output: 1
    weight_filler {
      type: "constant"
      value: 1
    }
    bias_filler {
      type: "constant"
      value: 0
    }
  }
}
layer {
  name: "conv_25_82"
  type: "Convolution"
  bottom: "data"
  top: "conv_25_82"
  convolution_param {
    num_output: 1
    pad: 0
    stride: 1
    weight_filler {
      type: "constant"
      value: 0
    }
    bias_filler {
      type: "constant"
      value: -1
    }
    kernel_h: 26
    kernel_w: 5
  }
}
layer {
  name: "relu_25_82"
  type: "ReLU"
  bottom: "conv_25_82"
  top: "conv_25_82"
}
layer {
  name: "fc_25_82"
  type: "InnerProduct"
  bottom: "conv_25_82"
  top: "fc_25_82"
  inner_product_param {
    num_output: 1
    weight_filler {
      type: "constant"
      value: 1
    }
    bias_filler {
      type: "constant"
      value: 0
    }
  }
}
layer {
  name: "conv_25_83"
  type: "Convolution"
  bottom: "data"
  top: "conv_25_83"
  convolution_param {
    num_output: 1
    pad: 0
    stride: 1
    weight_filler {
      type: "constant"
      value: 0
    }
    bias_filler {
      type: "constant"
      value: -1
    }
    kernel_h: 26
    kernel_w: 6
  }
}
layer {
  name: "relu_25_83"
  type: "ReLU"
  bottom: "conv_25_83"
  top: "conv_25_83"
}
layer {
  name: "fc_25_83"
  type: "InnerProduct"
  bottom: "conv_25_83"
  top: "fc_25_83"
  inner_product_param {
    num_output: 1
    weight_filler {
      type: "constant"
      value: 1
    }
    bias_filler {
      type: "constant"
      value: 0
    }
  }
}
layer {
  name: "conv_25_84"
  type: "Convolution"
  bottom: "data"
  top: "conv_25_84"
  convolution_param {
    num_output: 1
    pad: 0
    stride: 1
    weight_filler {
      type: "constant"
      value: 0
    }
    bias_filler {
      type: "constant"
      value: -1
    }
    kernel_h: 26
    kernel_w: 6
  }
}
layer {
  name: "relu_25_84"
  type: "ReLU"
  bottom: "conv_25_84"
  top: "conv_25_84"
}
layer {
  name: "fc_25_84"
  type: "InnerProduct"
  bottom: "conv_25_84"
  top: "fc_25_84"
  inner_product_param {
    num_output: 1
    weight_filler {
      type: "constant"
      value: 1
    }
    bias_filler {
      type: "constant"
      value: 0
    }
  }
}
layer {
  name: "concat_25"
  type: "Concat"
  bottom: "fc_25_1"
  bottom: "fc_25_2"
  bottom: "fc_25_3"
  bottom: "fc_25_4"
  bottom: "fc_25_5"
  bottom: "fc_25_6"
  bottom: "fc_25_7"
  bottom: "fc_25_8"
  bottom: "fc_25_9"
  bottom: "fc_25_10"
  bottom: "fc_25_11"
  bottom: "fc_25_12"
  bottom: "fc_25_13"
  bottom: "fc_25_14"
  bottom: "fc_25_15"
  bottom: "fc_25_16"
  bottom: "fc_25_17"
  bottom: "fc_25_18"
  bottom: "fc_25_19"
  bottom: "fc_25_20"
  bottom: "fc_25_21"
  bottom: "fc_25_22"
  bottom: "fc_25_23"
  bottom: "fc_25_24"
  bottom: "fc_25_25"
  bottom: "fc_25_26"
  bottom: "fc_25_27"
  bottom: "fc_25_28"
  bottom: "fc_25_29"
  bottom: "fc_25_30"
  bottom: "fc_25_31"
  bottom: "fc_25_32"
  bottom: "fc_25_33"
  bottom: "fc_25_34"
  bottom: "fc_25_35"
  bottom: "fc_25_36"
  bottom: "fc_25_37"
  bottom: "fc_25_38"
  bottom: "fc_25_39"
  bottom: "fc_25_40"
  bottom: "fc_25_41"
  bottom: "fc_25_42"
  bottom: "fc_25_43"
  bottom: "fc_25_44"
  bottom: "fc_25_45"
  bottom: "fc_25_46"
  bottom: "fc_25_47"
  bottom: "fc_25_48"
  bottom: "fc_25_49"
  bottom: "fc_25_50"
  bottom: "fc_25_51"
  bottom: "fc_25_52"
  bottom: "fc_25_53"
  bottom: "fc_25_54"
  bottom: "fc_25_55"
  bottom: "fc_25_56"
  bottom: "fc_25_57"
  bottom: "fc_25_58"
  bottom: "fc_25_59"
  bottom: "fc_25_60"
  bottom: "fc_25_61"
  bottom: "fc_25_62"
  bottom: "fc_25_63"
  bottom: "fc_25_64"
  bottom: "fc_25_65"
  bottom: "fc_25_66"
  bottom: "fc_25_67"
  bottom: "fc_25_68"
  bottom: "fc_25_69"
  bottom: "fc_25_70"
  bottom: "fc_25_71"
  bottom: "fc_25_72"
  bottom: "fc_25_73"
  bottom: "fc_25_74"
  bottom: "fc_25_75"
  bottom: "fc_25_76"
  bottom: "fc_25_77"
  bottom: "fc_25_78"
  bottom: "fc_25_79"
  bottom: "fc_25_80"
  bottom: "fc_25_81"
  bottom: "fc_25_82"
  bottom: "fc_25_83"
  bottom: "fc_25_84"
  top: "concat_25"
}
layer {
  name: "sum_25"
  type: "InnerProduct"
  bottom: "concat_25"
  top: "sum_25"
  inner_product_param {
    num_output: 1
    weight_filler {
      type: "constant"
      value: 1
    }
    bias_filler {
      type: "constant"
      value: 0
    }
  }
}
layer {
  name: "response"
  type: "Concat"
  bottom: "sum_0"
  bottom: "sum_1"
  bottom: "sum_2"
  bottom: "sum_3"
  bottom: "sum_4"
  bottom: "sum_5"
  bottom: "sum_6"
  bottom: "sum_7"
  bottom: "sum_8"
  bottom: "sum_9"
  bottom: "sum_10"
  bottom: "sum_11"
  bottom: "sum_12"
  bottom: "sum_13"
  bottom: "sum_14"
  bottom: "sum_15"
  bottom: "sum_16"
  bottom: "sum_17"
  bottom: "sum_18"
  bottom: "sum_19"
  bottom: "sum_20"
  bottom: "sum_21"
  bottom: "sum_22"
  bottom: "sum_23"
  bottom: "sum_24"
  bottom: "sum_25"
  top: "response"
}
